best_gnn_model_calibrated.pt (torch, 833411 bytes, 11 tensors)

conv1.bias f4 [128]
0	0xbb5a4db4	-0.0033310475
1	0x3c70c5e7	0.014695621
2	0xbdd234b1	-0.10263956
3	0xbd894c26	-0.06703977
4	0xbdf06ae8	-0.11739141
5	0xbdb9e2a0	-0.090764284
6	0xbd8eec16	-0.069786236
7	0xbd473206	-0.04863169
8	0xbddc6fc9	-0.10763509
9	0xbd63181d	-0.055442918
10	0xbdbcc02b	-0.09216341
11	0xbd63639f	-0.055514928
12	0xbd0ac8ca	-0.033882894
13	0x3be4282e	0.0069627976
14	0xbb90c8d4	-0.004418472
15	0xbd407f63	-0.046996485
16	0xbda673cc	-0.08127555
17	0xbd060be3	-0.03272618
18	0xbd3b5300	-0.04573345
19	0xbd959036	-0.07302897
20	0xbe1a7980	-0.15085411
21	0xbda49bbe	-0.08037518
22	0xbd58f493	-0.05296762
23	0x3c9fc344	0.01950229
24	0xbd8f3c1c	-0.06993887
25	0xbb8825e1	-0.004154906
26	0xbd6c69f0	-0.057718217
27	0xbda113bb	-0.078650914
28	0xbd5a42e1	-0.053286437
29	0xbd973e13	-0.073848866
30	0x3d0a1e9e	0.033720605
31	0x3ce26f05	0.027640829
32	0xbd7edaec	-0.0622205
33	0x3c1e0264	0.009644125
34	0xbc898ad4	-0.016789831
35	0xbd96dde3	-0.0736654
36	0xbcca43b2	-0.024690483
37	0xbda91ce6	-0.08257465
38	0xbdbb2b6a	-0.0913914
39	0xbdba3b09	-0.09093291
40	0x3c97c82c	0.018528067
41	0xbd9ae237	-0.07562678
42	0x3d763805	0.06011202
43	0x3d4386fd	0.047736157
44	0xbdbc8ff1	-0.09207142
45	0xbd72d6c2	-0.05928684
46	0xbde57e08	-0.11205679
47	0xbdb6e053	-0.08929505
48	0xbdfd844e	-0.12378751
49	0xbd79396e	-0.060845785
50	0xbd8ebf9e	-0.06970142
51	0xbda4c2a4	-0.08044937
52	0x3ae62fe0	0.0017561875
53	0xbdaead5e	-0.08529161
54	0xbc1c18df	-0.009527414
55	0x3aa05b74	0.0012234286
56	0xbc5855f6	-0.013204088
57	0xbd21c000	-0.039489746
58	0xbdb40be6	-0.08791332
59	0xbdaebb81	-0.08531857
60	0x3c9f706c	0.019462787
61	0xbdf5130b	-0.11966523
62	0x3c764d68	0.0150331035
63	0x3c5272f7	0.012844793
64	0xbd759793	-0.059959006
65	0x3d00147c	0.031269535
66	0xbdbaf80b	-0.09129342
67	0xbcea011f	-0.028564988
68	0xbdb15ab6	-0.0865988
69	0xbdaf03f0	-0.08545673
70	0xbdbfe819	-0.09370441
71	0xbddad002	-0.106842056
72	0x3c6c8433	0.014435816
73	0xbd3c5b52	-0.045985527
74	0x3d288689	0.041143928
75	0xbd1c153a	-0.03810618
76	0xbdc6d508	-0.09708601
77	0xbd82c86c	-0.06385884
78	0xbd70cb72	-0.05878777
79	0xbd94df9b	-0.07269212
80	0xbdeeb06d	-0.11654744
81	0xbd408313	-0.047000002
82	0xbc2f50a6	-0.01070038
83	0xbd2d2ed0	-0.042280972
84	0xbda94438	-0.08264965
85	0xbe0505e6	-0.12990531
86	0xbd099c1e	-0.03359615
87	0xbd33496b	-0.04377119
88	0xbddb01b8	-0.10693687
89	0x3d346d56	0.044049583
90	0xbdbe88ff	-0.09303474
91	0xbe20abe1	-0.15690567
92	0xbdc9fc91	-0.09862626
93	0xbdcc7f76	-0.09985249
94	0xbd449e33	-0.048002433
95	0xbda23e10	-0.07921994
96	0xbd952161	-0.07281757
97	0xbcfa2383	-0.030534511
98	0xbdbe46b8	-0.09290832
99	0xbd1a5f7a	-0.03768871
100	0xbd571f93	-0.052520346
101	0xbccd3200	-0.025048256
102	0xbd85675a	-0.06513853
103	0xbda647f4	-0.08119193
104	0xbd732ede	-0.059370868
105	0xbd368bee	-0.04456704
106	0xbdb26444	-0.087105304
107	0xbd1c9a30	-0.038232982
108	0xbdc3a822	-0.09553553
109	0xbd446143	-0.04794432
110	0xbd7ed4bb	-0.062214594
111	0xbd883c85	-0.06652168
112	0xbde68cb8	-0.11257309
113	0x3cb76222	0.02238566
114	0xbdc07386	-0.09397034
115	0xbd49b06d	-0.04924052
116	0xbd096948	-0.03354767
117	0xbdd8b7d1	-0.10581935
118	0xbdcc55f1	-0.099773295
119	0xbd7d9b97	-0.06191596
120	0xbdd1d9c9	-0.10246617
121	0xbdc2564c	-0.09489116
122	0xbdad2735	-0.08454744
123	0xbda1d0d6	-0.079011604
124	0xbde2512a	-0.11050637
125	0xbdae1bea	-0.08501418
126	0xbd51cda9	-0.051221523
127	0xbe3a09a1	-0.18167736

conv1.lin.weight f4 [128, 6]
0	0xbe59142b	-0.211991
1	0x3d60a909	0.054848704
2	0x3db0e474	0.08637324
3	0x3e5746bc	0.21023077
4	0xbe1465dd	-0.14491983
5	0xbdb8bec0	-0.09020758
6	0xbcf62ec8	-0.030051604
7	0xbe39e20d	-0.18152638
8	0xbe587e81	-0.21142007
9	0x3e9f2196	0.31080312
10	0xbdf016f1	-0.11723126
11	0xbdec1b5b	-0.11528655
12	0xbc9097ac	-0.017650448
13	0x3d16845b	0.036747318
14	0xbd231af0	-0.03982061
15	0xbc952277	-0.01820491
16	0xbd493aca	-0.04912833
17	0x3d60c8eb	0.05487911
18	0x3dc9fd8e	0.09862815
19	0x3e88c5fb	0.26713547
20	0xbdcf15a3	-0.10111549
21	0x3e4b1ff0	0.19836402
22	0xbd3eba01	-0.046564106
23	0xbdd0550d	-0.10172472
24	0xbdc12f3b	-0.094328366
25	0x3e8b86af	0.27251193
26	0xbc326549	-0.010888406
27	0xbdca0613	-0.0986444
28	0x3d337dea	0.043821253
29	0x3e288922	0.16458562
30	0xbe5642c4	-0.20923907
31	0x3d64c02c	0.055847332
32	0xbd1cd305	-0.03828718
33	0xba493f5e	-0.0007676984
34	0x3d41a5ed	0.04727738
35	0xbde0e2fc	-0.10980794
36	0xbd3c7fda	-0.046020366
37	0xbd701e19	-0.058622453
38	0xbd8f3450	-0.069924
39	0xbdfbd5cd	-0.12296639
40	0xbdeed716	-0.11662118
41	0x3df51d68	0.119684994
42	0x3da12c82	0.07869817
43	0x3c6ca6ad	0.0144440355
44	0xbaeffdcc	-0.001830989
45	0xbea76765	-0.3269607
46	0x3dc7b579	0.0975141
47	0x3e25ebed	0.1620328
48	0x3d54e6c4	0.051977888
49	0x3e8e449a	0.27786714
50	0x3de77af9	0.11302752
51	0xbe1c8dcb	-0.15288465
52	0xbdf29700	-0.11845207
53	0xbc088655	-0.0083328085
54	0xbeb799f0	-0.35859632
55	0xbdbd5558	-0.09244794
56	0xbdccf7d2	-0.100082055
57	0x3e34e1a6	0.17664203
58	0x3c60b192	0.013714211
59	0xbdf104bf	-0.11768483
60	0x3e041a84	0.1290074
61	0x3e07fa20	0.13279009
62	0x3dac6611	0.08417905
63	0x3a010974	0.0004922368
64	0xbe2bd9f7	-0.16782366
65	0x3c2cd615	0.010549088
66	0xbe873b00	-0.264122
67	0xbe1b196f	-0.15146421
68	0x3d3f634c	0.046725556
69	0x3ea4a81f	0.32159516
70	0x3e0430ce	0.12909243
71	0x3e1eaeca	0.15496364
72	0xbe9869d2	-0.29768234
73	0x3e3f2bb7	0.1866902
74	0xbccacd0f	-0.024755983
75	0x3d0a9397	0.03383216
76	0xbe87a716	-0.26494664
77	0x3e47a1d3	0.19495325
78	0x3cc419b8	0.023938045
79	0xbdc2aad2	-0.09505238
80	0xbe51d7ff	-0.20492552
81	0x3ebe7fd8	0.37206912
82	0xbd8fb3e8	-0.07016736
83	0xbe55d326	-0.20881328
84	0xbc52f847	-0.012876577
85	0x3d1ce470	0.038303792
86	0xbc69d2df	-0.014271467
87	0x3eb73eee	0.357902
88	0x3d8a9b67	0.06767922
89	0x3dfe35c0	0.12412596
90	0x3c357e5a	0.011077488
91	0x3d95d862	0.07316662
92	0xbd8be087	-0.068299346
93	0xbe010f2e	-0.12603447
94	0xbd85317a	-0.065035775
95	0xbdfadf9d	-0.12249682
96	0xbde9fc4f	-0.11425077
97	0xbd23c582	-0.03998328
98	0xbc06b1ed	-0.008221132
99	0xbd9a4615	-0.07532898
100	0x3d6b6a2c	0.0574743
101	0x3d213671	0.03935856
102	0xbeb3727e	-0.35048288
103	0x3e3699b3	0.17832069
104	0x3e1de2fc	0.15418619
105	0x3df368f3	0.11885252
106	0x3e23cc78	0.15995967
107	0x3e3d632b	0.18494861
108	0xbce161a2	-0.027512375
109	0x3e146853	0.14492922
110	0x3d54cb54	0.05195172
111	0xbe85e015	-0.26147524
112	0xbe66d765	-0.22543104
113	0xbd42e78e	-0.04758411
114	0xbd599d26	-0.053128384
115	0x3e4ccb90	0.19999528
116	0xbd7f80ff	-0.06237888
117	0x3e558acb	0.20853727
118	0x3ddc549d	0.10758326
119	0x3dcddaaf	0.10051476
120	0x3e0110c7	0.12604056
121	0x3cd5696c	0.026051246
122	0xbddcdff2	-0.10784902
123	0xbdd52980	-0.10408306
124	0xbe9508a6	-0.2910816
125	0x3e043490	0.12910676
126	0xbb661192	-0.0035105688
127	0x3d889686	0.06669335
128	0xbc468959	-0.012117707
129	0x3e8f4866	0.27984923
130	0x3d7e6871	0.06211132
131	0xbd87131a	-0.0659544
132	0x3e88a201	0.266861
133	0x3dbcf46b	0.092263065
134	0x3d45addb	0.048261505
135	0x3e332f50	0.17498517
136	0xbe92b3e9	-0.28652886
137	0x3de4454c	0.1114603
138	0xbbebd98a	-0.0071975635
139	0xbdc70fbe	-0.097197995
140	0xbccaabea	-0.024740178
141	0x3edba28f	0.4289746
142	0x3dda33e4	0.106544286
143	0x3e36a75b	0.17837279
144	0x3b5f6d59	0.0034092276
145	0xbc78a56a	-0.015176157
146	0xbda89809	-0.082321234
147	0x3db946ed	0.09046731
148	0xbcc72600	-0.024310112
149	0x3e5acfa6	0.21368274
150	0x3e3fd1ee	0.18732426
151	0x3e230ced	0.159229
152	0x3e0d1334	0.13776857
153	0x3e91088b	0.2832683
154	0xbd4f1f77	-0.050567117
155	0x3e4125cb	0.18862073
156	0x3d358d2e	0.044324093
157	0x3e1792ea	0.14802137
158	0xbc98aade	-0.018636163
159	0x3e919fcb	0.28442225
160	0x3dadf489	0.08493907
161	0x3d5e5e14	0.05428894
162	0x3e2ee7a8	0.17080557
163	0x3e731269	0.23737492
164	0x3e29e768	0.1659218
165	0x3eae7833	0.3407608
166	0x3d370ad9	0.04468808
167	0x3da005a8	0.07813579
168	0xbdfd7184	-0.12375167
169	0x3e2df3b7	0.16987501
170	0x3db34961	0.0875423
171	0x3e0d0e5f	0.13775013
172	0x3e00cd50	0.1257832
173	0xbe0cd9cf	-0.13754962
174	0xbe8424c8	-0.25809312
175	0xbd2f8bf3	-0.042858075
176	0x3c754b9d	0.014971641
177	0xbe1a82cd	-0.15088959
178	0x3e04682c	0.12930363
179	0x3e36281e	0.17788741
180	0x3dbd30db	0.09237834
181	0xbe1ed46d	-0.15510722
182	0xbdd5d644	-0.104412585
183	0x3ecfe1bf	0.40601918
184	0x3c005d6c	0.0078347735
185	0xbd6f7275	-0.058458764
186	0x3c17780a	0.009244928
187	0x3d64e17f	0.055879112
188	0xbe64b660	-0.22335196
189	0x3eb62129	0.35572174
190	0xbcca7a84	-0.024716623
191	0xbe3feaa2	-0.18741849
192	0xbeb6601a	-0.35620195
193	0xbc1799f6	-0.009253016
194	0x3d987118	0.07443446
195	0x3d87dc59	0.06633825
196	0xbe9976a6	-0.29973334
197	0xbc9b1bba	-0.01893412
198	0xbf25dc73	-0.64789504
199	0xbda52f40	-0.08065653
200	0x3d1b820f	0.03796583
201	0xbd771458	-0.060322136
202	0x3e1ba413	0.15199308
203	0xbe151b45	-0.14561184
204	0xbed4b7c1	-0.41546443
205	0x3e14c432	0.14527968
206	0xbe096a2b	-0.13419406
207	0x3d9e355a	0.0772502
208	0x3d81adc6	0.06331973
209	0xbe442ed9	-0.19158496
210	0x3db4f916	0.08836572
211	0x3dccfa7a	0.10008712
212	0xbd09c852	-0.033638306
213	0xbe4d49b4	-0.20047647
214	0x3e2a3b56	0.16624197
215	0x3e8394b9	0.25699404
216	0x3de5a6d5	0.11213461
217	0xbd6ff178	-0.058579892
218	0xbda35c1f	-0.07976555
219	0x3eda1f2c	0.42601907
220	0xbd190b45	-0.037364263
221	0xbd88160a	-0.066448286
222	0xbde5e79e	-0.11225818
223	0x3e526a1c	0.2054829
224	0xbcb55da9	-0.022139387
225	0x3e21f998	0.15817869
226	0xbb3ccefa	-0.002880989
227	0x3d4a764a	0.049429215
228	0x3d79c312	0.06097705
229	0x3e745e4c	0.23864096
230	0x3d8262bc	0.06366488
231	0x3e68dd51	0.22740676
232	0x3cee6ba7	0.029104067
233	0x3de8a9cd	0.11360512
234	0x3e73fbaf	0.23826478
235	0x3e773936	0.24142918
236	0x3e4e5e3e	0.20153138
237	0x3e6cabe2	0.23112443
238	0xbe942aef	-0.28939006
239	0x3e5fb390	0.21845841
240	0x3e05cf2c	0.13067311
241	0xbd4ea560	-0.050450683
242	0xbd48ba8e	-0.049006037
243	0x3ebcf0e4	0.36902535
244	0x3cfc7362	0.030816738
245	0xbc135b14	-0.008993883
246	0xbc8b3eae	-0.016997661
247	0x3e1af17d	0.15131183
248	0xbdb109e3	-0.08644464
249	0xbe1f0859	-0.15530528
250	0xbe8cf31e	-0.27529234
251	0xbcffb4ae	-0.031214084
252	0x3ce3037e	0.027711626
253	0x3dbb05eb	0.09131988
254	0xbe5e3fee	-0.21704075
255	0x3ead6cf2	0.3387218

conv2.bias f4 [256]
0	0xbb1d67d9	-0.0024018197
1	0xbace6f1d	-0.0015749667
2	0xbd3856af	-0.045004543
3	0x3bcaf1b9	0.0061933664
4	0xbda6d05d	-0.08145211
5	0xbc97adf5	-0.018515566
6	0xbd2105a6	-0.039312027
7	0x3d579980	0.052636623
8	0x3c47c903	0.012193921
9	0x3dc77e44	0.0974088
10	0xbc7c8081	-0.015411497
11	0xbd3e04d9	-0.04639134
12	0xbcb4c268	-0.022065356
13	0xbd1c3ea3	-0.038145673
14	0xbd1e12f6	-0.0385923
15	0xbd7f5e2f	-0.06234568
16	0xbd424e4d	-0.047437955
17	0xbd076353	-0.033053707
18	0xbcfd9b2b	-0.030957779
19	0xbce4b944	-0.027920373
20	0xbbeba4aa	-0.0071912603
21	0xbd174b7c	-0.036937222
22	0x3d72c969	0.05927411
23	0x3d2e26c8	0.042517453
24	0xbc79d528	-0.015248574
25	0xbce4f403	-0.027948385
26	0xbd13953f	-0.036031004
27	0xbd409845	-0.047020216
28	0xbd3a890a	-0.045540847
29	0xbc311329	-0.010807791
30	0x3b914188	0.0044328608
31	0xbc8b7ab8	-0.01702629
32	0xbd019231	-0.03163356
33	0xbd17e658	-0.037084907
34	0xbdb49c49	-0.088188715
35	0xbd4a70f3	-0.049424123
36	0xbd811918	-0.063036144
37	0xbd7e552b	-0.06209294
38	0xbd81fe44	-0.063473254
39	0xbd3d0280	-0.046144962
40	0xbd8556bf	-0.06510686
41	0xbd7b35a3	-0.06133045
42	0xbd667366	-0.056262396
43	0xbd8c2cdc	-0.06844494
44	0xbd7c8510	-0.061650336
45	0xbd762bef	-0.060100492
46	0xbbaeb279	-0.005331334
47	0x3d07de09	0.033170734
48	0xbd38c35f	-0.045108195
49	0xbd1fe298	-0.039034456
50	0xbda17258	-0.078831375
51	0x3d4f7e6a	0.050657667
52	0xbd2727a1	-0.040809277
53	0xbcb4e901	-0.022083761
54	0xbd339420	-0.043842435
55	0xbd975b30	-0.073904395
56	0xbcd0d9bc	-0.025494449
57	0xbd0b16c7	-0.03395727
58	0xbcd77c6f	-0.026304452
59	0x3b9521b9	0.004551139
60	0x3d87307d	0.06601045
61	0xbd81ce7e	-0.063382134
62	0xbd235412	-0.039875098
63	0xbd7642bf	-0.060122248
64	0x3cb2df99	0.021835135
65	0x3ba1d6c3	0.0049389317
66	0xbbfcf9b0	-0.0077201948
67	0xbda0251d	-0.07819579
68	0xbd0002df	-0.031252738
69	0xbd34b920	-0.04412186
70	0x3ce675b5	0.028132299
71	0xbdd6508b	-0.10464581
72	0xbd7343a3	-0.059390675
73	0xbcfb8cf1	-0.030706855
74	0xbced19e0	-0.028943002
75	0x3cfaa86e	0.030597892
76	0xbd27d1c9	-0.04097155
77	0xbcf18a0c	-0.029484771
78	0xbd620cd4	-0.055188015
79	0xbcb6bf1a	-0.022307921
80	0xbd85c111	-0.06530965
81	0xbc7d6013	-0.0154648
82	0xbd61602e	-0.055023365
83	0xbcbf8183	-0.023377186
84	0xbd713bfd	-0.0588951
85	0xbd837919	-0.06419582
86	0xbd0c8288	-0.03430417
87	0xbce5a70b	-0.028033754
88	0x3c949055	0.01813523
89	0x3d093134	0.03349419
90	0x3d889cd6	0.06670539
91	0xbd85a0f3	-0.06524839
92	0x3d247a9d	0.040155996
93	0xbd5c0919	-0.053719614
94	0xbd7638df	-0.06011283
95	0xbdcef6da	-0.10105677
96	0x3d02314a	0.031785287
97	0xbc84bd31	-0.016203495
98	0xbce47a3d	-0.027890319
99	0xbd012eb6	-0.031538688
100	0xbd215b19	-0.039393518
101	0x3dc72f92	0.0972587
102	0x3c62ae28	0.013835467
103	0xbb89a3ec	-0.004200449
104	0x3cf1f4bd	0.029535646
105	0xbd683f0e	-0.05670076
106	0xbd37e56f	-0.04489654
107	0x3c68ab87	0.014201052
108	0xbd23f91b	-0.040032487
109	0xbd9a69b4	-0.075396925
110	0xbde3518c	-0.11099538
111	0xbd19a78a	-0.037513293
112	0x3c86958e	0.016428735
113	0xbb266881	-0.002539188
114	0xbd466ed3	-0.048445534
115	0x3c671d46	0.0141061
116	0xbd32ea40	-0.04368043
117	0xbcc08340	-0.023500085
118	0xbceb4f21	-0.028724255
119	0xbe2c043b	-0.16798489
120	0xbba08c96	-0.0048995716
121	0xbcc935aa	-0.024561722
122	0xbd660854	-0.056160286
123	0x3cba2395	0.022722045
124	0xbd79f6ee	-0.061026506
125	0xbc2b2aa7	-0.010447181
126	0x3c6e2a3e	0.0145364385
127	0xbd28c023	-0.04119886
128	0xbd5d4c9d	-0.054028142
129	0xbd9a7b8e	-0.075430974
130	0xbd2d0be3	-0.042247664
131	0xbc80c036	-0.015716653
132	0xbcbe8f71	-0.023261758
133	0xbd95c90e	-0.07313739
134	0xbd6ea742	-0.05826498
135	0x3c54f42b	0.012997667
136	0xbd86c678	-0.06580824
137	0xbd897de7	-0.06713467
138	0xbda16b0d	-0.078817464
139	0xbd8ad44d	-0.067787744
140	0xba8fb190	-0.0010962952
141	0xbd288de0	-0.041150928
142	0x3d6926c3	0.05692173
143	0xbcdfe5cc	-0.027331255
144	0xbdaab1a5	-0.08334664
145	0xbd8c3368	-0.068457425
146	0xbd83b6a7	-0.064313225
147	0x3c5182e6	0.012787556
148	0xbcf17b0e	-0.029477622
149	0xbd788ac7	-0.060679223
150	0xbda6bff4	-0.08142081
151	0xbd7f0494	-0.062260225
152	0xbd1a571b	-0.037680726
153	0xbd1b55a6	-0.037923478
154	0xbd1ab32f	-0.03776854
155	0xbd78702b	-0.060653847
156	0xbd1703d6	-0.036868893
157	0xbd1d08af	-0.03833836
158	0xbd153f70	-0.03643745
159	0xbd321a56	-0.043482147
160	0xbd618b13	-0.055064272
161	0xbcc85344	-0.024453767
162	0xbd64cdc8	-0.05586031
163	0xbda9c181	-0.08288861
164	0xbcefd250	-0.02927509
165	0xbd1f67d5	-0.03891738
166	0xbd1b0e0e	-0.0378552
167	0xbd7b935b	-0.061419826
168	0xbd80b561	-0.06284595
169	0xbc484f8c	-0.012225997
170	0xbd455cad	-0.048184086
171	0xbcf48180	-0.029846907
172	0xbd7507ac	-0.05982177
173	0xbacfb736	-0.0015847448
174	0xbdc73198	-0.09726256
175	0xbd9b82df	-0.07593321
176	0xbd37809a	-0.04480038
177	0xbcabffe3	-0.02099604
178	0xbd0063ea	-0.031345285
179	0xbd2815a8	-0.041036278
180	0xbcd9a71f	-0.026568947
181	0xbbc2d55c	-0.0059458446
182	0xbbeb3085	-0.007177415
183	0xbc1c2051	-0.009529189
184	0xbd1de565	-0.038548846
185	0xbd8af9a1	-0.06785894
186	0xbced3ae1	-0.02895874
187	0xbd0b8319	-0.03406057
188	0xbd4f7240	-0.050646067
189	0x3d1949c9	0.037423883
190	0xbc09ca08	-0.008409984
191	0x3b6a6dba	0.0035770969
192	0xbd664bab	-0.056224506
193	0x3cf62d1c	0.030050807
194	0x3d8fc0c7	0.07019191
195	0xbd33eeaa	-0.04392878
196	0xbdbbe1da	-0.09173937
197	0xbdd73d4c	-0.10509738
198	0x3cb6dce0	0.022322118
199	0x3d63c901	0.055611614
200	0x3c19a02a	0.009376565
201	0xbc296cef	-0.010340913
202	0x3d306438	0.043064326
203	0xbd38064a	-0.044927873
204	0xbd53c6e0	-0.051703334
205	0xbd54e0ca	-0.051972188
206	0xbdc9a192	-0.0984527
207	0xbc2044d8	-0.009782039
208	0xbd17a04d	-0.03701811
209	0xbcbfcc77	-0.023412926
210	0x3d8fbba0	0.070182085
211	0xbc718021	-0.014740021
212	0xbd827e61	-0.06371761
213	0xbcf76602	-0.030200008
214	0x3a1f17e5	0.0006068929
215	0x3d6169e4	0.055032626
216	0xbd9d4b34	-0.076803595
217	0x3d9e1a83	0.077199005
218	0xbd21c232	-0.03949184
219	0xbc894644	-0.016757138
220	0xbceebdd9	-0.02914326
221	0xbd016080	-0.03158617
222	0xbd62395e	-0.05523049
223	0xbc0e0883	-0.008669022
224	0xbc870683	-0.016482597
225	0x3cf2a15d	0.02961796
226	0xbd893b7d	-0.067007996
227	0xbd677e04	-0.056516662
228	0xbd74f9f4	-0.059808686
229	0xbb2dbbb7	-0.0026509592
230	0xbd4843e2	-0.048892863
231	0xbdf59a1e	-0.11992286
232	0x3d9dd2bb	0.07706209
233	0xbcf964df	-0.030443607
234	0xbcb87998	-0.022518918
235	0xbc29a681	-0.010354639
236	0x3d88337e	0.06650446
237	0x3d834d22	0.06411196
238	0xbdb4a331	-0.08820189
239	0xbd5929b3	-0.053018283
240	0xbcc77d57	-0.024351759
241	0xbcf64738	-0.030063257
242	0xbe0fe452	-0.14051941
243	0xbd80a8d9	-0.06282205
244	0xbdb6bdb6	-0.08922903
245	0x3db6a211	0.089176305
246	0x3d5d6219	0.05404863
247	0xbd370cf3	-0.044690084
248	0xbd19dfe9	-0.037567053
249	0xbd56905d	-0.05238377
250	0xbd51325d	-0.05107342
251	0xbd0ab173	-0.033860635
252	0xbd0f936f	-0.035052713
253	0xbd048ea8	-0.03236261
254	0xbc2879ec	-0.010282975
255	0x3cb820f9	0.02247666

conv2.lin.weight f4 [256, 128]
0	0xbceac674	-0.028659083
1	0x3cdafd3a	0.026732076
2	0xba56576a	-0.0008176478
3	0x3d3f10d8	0.046646923
4	0xbdf468cd	-0.11934052
5	0x3d4da46e	0.05020564
6	0x3d3e891f	0.046517488
7	0xbdce1623	-0.10062816
8	0x3d481b68	0.04885426
9	0x3d11c147	0.035584714
10	0x3bd94a30	0.0066311583
11	0x3beaf2b1	0.0071700444
12	0xbd87cccb	-0.06630858
13	0xbe2204e9	-0.15822186
14	0x3b96eeaa	0.0046060877
15	0x3dbe0b03	0.09279444
16	0xbd6e8eef	-0.05824178
17	0xbdc9d759	-0.098555274
18	0xbdaf5175	-0.085604586
19	0x3c4f1d41	0.012641252
20	0x3c943d54	0.01809565
21	0xbdba0964	-0.09083822
22	0x3c966e95	0.018363276
23	0xbcdbde4f	-0.026839403
24	0xbc7dfa2d	-0.015501541
25	0xbd93fa03	-0.0722542
26	0xbde054a4	-0.10953644
27	0xbd760130	-0.060059726
28	0x3d1b44f9	0.037907574
29	0xbd1c6fd2	-0.038192578
30	0x3d435411	0.047687594
31	0xbd55da7d	-0.05221032
32	0xbdb82122	-0.089906946
33	0x3cac6cd6	0.02104799
34	0x3cd0b24e	0.025475647
35	0xbd4737d9	-0.048637245
36	0x3c2de58a	0.010613808
37	0xbdda79b0	-0.10667741
38	0xbdbdac4b	-0.09261378
39	0xbcb570f8	-0.022148594
40	0xbccc3549	-0.024927752
41	0xbd58a884	-0.052895084
42	0xbd193367	-0.037402537
43	0xbe0ec1ab	-0.13941066
44	0xbca85327	-0.020547463
45	0xbd7d8023	-0.06188978
46	0xbb136da6	-0.0022495775
47	0x3dc039cf	0.09386026
48	0x3d517317	0.05113515
49	0x3d520114	0.05127056
50	0xbcd619a9	-0.026135283
51	0xbdb0eece	-0.086392984
52	0xbd80cc8c	-0.06289014
53	0xbd974a8e	-0.07387267
54	0xbde4adcd	-0.11165962
55	0x3a3e278b	0.0007253817
56	0x3c369345	0.01114351
57	0x3dcaa8f8	0.098955095
58	0xbca8b696	-0.020594876
59	0xbc11137f	-0.008854746
60	0xbd3b9c39	-0.045803282
61	0x3d3114a9	0.043232594
62	0x3c165857	0.009176335
63	0x3a5d13da	0.0008433439
64	0xbc6d31a8	-0.014477171
65	0xbd3d845e	-0.046268813
66	0x3d42df6a	0.047576346
67	0xbcb75de6	-0.022383641
68	0xbd3e5328	-0.046466023
69	0xbd3a97dd	-0.045554984
70	0xbd3e250c	-0.04642205
71	0xbdd5e613	-0.10444274
72	0xbccaf2be	-0.024773952
73	0xbd88bd59	-0.0667674
74	0xbdb68711	-0.089124806
75	0x3ce8a6b7	0.028399808
76	0xbd502f19	-0.050826166
77	0x3dc29b89	0.09502322
78	0xbdb3c4f2	-0.08777799
79	0xbaa252c7	-0.0012384289
80	0xbdb9376b	-0.09043773
81	0xbda7bb3f	-0.08190011
82	0xbd277b2b	-0.040888947
83	0xbd35761f	-0.044302102
84	0x3d948db8	0.07253593
85	0x3d02fe0c	0.03198056
86	0x3dceaa58	0.10091084
87	0x3d70c7b5	0.058784205
88	0x3cb4327a	0.021996725
89	0x3c11501d	0.008869198
90	0xbc41956d	-0.011815411
91	0xbe129a22	-0.1431661
92	0xbb906d54	-0.004407564
93	0xbd387466	-0.04503288
94	0x3d643166	0.055711173
95	0x3c1e438c	0.009659659
96	0xbce8d228	-0.028420523
97	0xbd38a160	-0.045075774
98	0xbc170770	-0.009218082
99	0x3d497628	0.04918495
100	0xbd0cdae9	-0.034388456
101	0xbcec7186	-0.028862726
102	0xbdcb31b9	-0.09921593
103	0xbe16889d	-0.14700551
104	0x3d451dce	0.048124127
105	0xbde7591f	-0.112962954
106	0xbd3045d8	-0.04303536
107	0x3cc3baa9	0.023892717
108	0xba4826eb	-0.0007635194
109	0xb7eaf024	-2.8006798e-05
110	0xbd31cdb6	-0.043409072
111	0xbb096e30	-0.0020970218
112	0x3d7fa2c4	0.062411085
113	0xbd86f897	-0.065903835
114	0xbe1c64b6	-0.15272793
115	0xbd9e4184	-0.0772734
116	0xbd509c37	-0.050930228
117	0xbd34ac6b	-0.044109743
118	0xbde1ed66	-0.11031608
119	0xbc5f8275	-0.013641943
120	0x3be2e0ab	0.006923755
121	0xbdb7e762	-0.0897968
122	0x3b25359f	0.0025208963
123	0xbe1522cb	-0.14564054
124	0xbdbd5698	-0.09245032
125	0x3cf405b6	0.02978788
126	0xbaab4fd1	-0.0013070052
127	0xbd3cb9a4	-0.04607548
128	0xb90f79c6	-0.00013682907
129	0xbc135f07	-0.008994824
130	0x395f7dad	0.00021313755
131	0x3afe6e5a	0.001941155
132	0xbbe95572	-0.0071207816
133	0xbb5dac09	-0.0033824465
134	0x3b6eaa83	0.003641755
135	0xbcc138ff	-0.023586748
136	0xba8a6a4d	-0.0010560245
137	0x391d0f20	0.00014978321
138	0xbcaa8899	-0.020817088
139	0xbbc1af0e	-0.0059107607
140	0x3a1fc540	0.0006094761
141	0x3b697911	0.003562514
142	0xbb0bcb19	-0.0021330772
143	0x3973f66e	0.00023266088
144	0xbbc72949	-0.0060779196
145	0xba9bd844	-0.0011890014
146	0x3b86661c	0.004101528
147	0x3b2cff5d	0.0026397326
148	0xbba6c4c3	-0.005089374
149	0x3b9e54eb	0.0048319004
150	0x3aa52853	0.0012600519
151	0xb78b0694	-1.6573154e-05
152	0x39eafbca	0.00044819555
153	0x3a0e8de6	0.00054380146
154	0x3b507c6a	0.0031812438
155	0xbb8e8ceb	-0.004350295
156	0x3bceb90e	0.0063086813
157	0x3b009993	0.0019622787
158	0x3aadb563	0.001325291
159	0xb9f46eee	-0.00046621956
160	0x396611e3	0.00021941173
161	0xbcb383db	-0.02191346
162	0x3b4b6f55	0.00310417
163	0x3bf1c146	0.0073777763
164	0xb9d244ce	-0.00040105585
165	0xb8a413ca	-7.8238154e-05
166	0xbab7758f	-0.0013996827
167	0xbad1543c	-0.0015970538
168	0xba9ec2d9	-0.0012112512
169	0x3b67e24a	0.0035382682
170	0xb99f1d62	-0.00030348735
171	0xb93fc34b	-0.00018287932
172	0xb894a1bd	-7.087316e-05
173	0x3b60b4f2	0.003428754
174	0x3a74e2c4	0.0009341652
175	0xba0f817e	-0.0005474313
176	0x3b58a01d	0.003305442
177	0xb7efa490	-2.856765e-05
178	0xbb1c3b1f	-0.002383895
179	0x3acbc719	0.0015547007
180	0xbaa215f8	-0.0012366166
181	0xba3d37d7	-0.00072180986
182	0xbb29e5bf	-0.0025924293
183	0xb9e0ace0	-0.0004285341
184	0x38bb6196	8.935032e-05
185	0x3b00b4fd	0.0019639127
186	0xbcb58f72	-0.022163127
187	0xbac518e7	-0.0015037329
188	0xb9019bb6	-0.00012360406
189	0x3a84fa34	0.0010145367
190	0xbaa75c64	-0.0012768623
191	0x3a884cb4	0.0010398836
192	0xbce625ad	-0.028094137
193	0xba99004b	-0.0011673061
194	0xbd20369c	-0.03911458
195	0xbab66e0b	-0.0013918293
196	0x3a478d7c	0.00076123304
197	0xb9bb1d5f	-0.00035689303
198	0x3aa6e3d8	0.0012732698
199	0xbd3517fc	-0.044212326
200	0x3b7816c6	0.003785537
201	0x3a631f99	0.0008664071
202	0xba9dcaf3	-0.0012038633
203	0xb9ca2a86	-0.00038560125
204	0x3b5e69ba	0.003393753
205	0xbcea384e	-0.028591301
206	0x39a69b49	0.00031777684
207	0xb9094d11	-0.00013094048
208	0x3c155cd2	0.009116368
209	0xba95ff58	-0.0011443896
210	0xba0b9a73	-0.0005325444
211	0x3ad1a860	0.0015995614
212	0xbc1129b4	-0.00886004
213	0xbb459bb6	-0.0030152625
214	0xba53a348	-0.0008073342
215	0xb8b82278	-8.780224e-05
216	0xb7412e20	-1.1514436e-05
217	0x3a217e7a	0.0006160509
218	0x3c064828	0.008195914
219	0x3bda79e6	0.0066673635
220	0x3a8e7bd2	0.0010870642
221	0xbc142b60	-0.0090435445
222	0xbb3a1d86	-0.0028398945
223	0xbd0e29ae	-0.034707718
224	0xba0ff547	-0.0005491566
225	0x3a950370	0.0011368822
226	0x3ad2e4ed	0.0016089954
227	0x3ac7e95b	0.001525204
228	0xb83109a0	-4.2209052e-05
229	0x3ae05f34	0.0017118216
230	0xba34c8c2	-0.00068963703
231	0xbb92d322	-0.0044807354
232	0xbb9378e4	-0.0045004953
233	0xbb1e83c9	-0.0024187437
234	0x3a9bfbe4	0.0011900631
235	0xbaa46fa2	-0.0012545476
236	0x3a2447c6	0.00062667986
237	0x3a10df73	0.00055264606
238	0xbcaa417b	-0.020783177
239	0x3aabf88c	0.0013120337
240	0x3ba89774	0.0051450077
241	0x3b1be192	0.0023785573
242	0xbbf82bec	-0.0075735953
243	0x3b16a79e	0.0022988091
244	0x3a37e574	0.0007015087
245	0xb941b046	-0.00018471581
246	0xbc92fdf5	-0.017943362
247	0x3ca11ad9	0.019666122
248	0xbd21af7d	-0.039474
249	0x3ab49c2e	0.0013779455
250	0xba36f199	-0.000697875
251	0xba30fdd4	-0.00067516905
252	0xba98f9cd	-0.0011671126
253	0xbd197330	-0.037463367
254	0x399cc660	0.0002990244
255	0x39fbc220	0.00048019085

edge_classifier.0.weight f4 [256, 514]
0	0x3a392e9c	0.0007064135
1	0xb897e9c5	-7.243784e-05
2	0x3a17308c	0.0005767427
3	0x3bf4d7fa	0.0074720355
4	0xbd9b3ac9	-0.07579572
5	0xb9a817e9	-0.00032061271
6	0xb89920a3	-7.3016876e-05
7	0xbca45862	-0.020061675
8	0xbccb6cc4	-0.024832137
9	0xbcc36a44	-0.023854382
10	0xb85694c4	-5.1160125e-05
11	0xbc5b84e7	-0.013398386
12	0x38ddf33e	0.000105834086
13	0xb9ba4366	-0.000355269
14	0x3978ddfe	0.00023733822
15	0xb8fa1b1c	-0.000119259785
16	0xb98bbae7	-0.000266514
17	0xb83c8fa4	-4.495647e-05
18	0xb883c4f3	-6.2832514e-05
19	0x3cd9573c	0.026530854
20	0x3a07856c	0.0005169723
21	0x3abfdb57	0.0014637512
22	0x3d4b5ba5	0.049647946
23	0xbb10b8f2	-0.0022082892
24	0xb9a4f185	-0.00031460464
25	0x39a0cee9	0.00030671738
26	0xb9569522	-0.00020464187
27	0x3c8bc656	0.017062347
28	0x38ea08bb	0.00011159616
29	0xb7336d08	-1.0694617e-05
30	0xbe09c635	-0.13454516
31	0x39aee318	0.00033357064
32	0x38d8c9dc	0.00010337282
33	0x39648a9b	0.00021795409
34	0x3db4b30e	0.088232145
35	0xb9b16f87	-0.00033843165
36	0xb9bec92e	-0.00036389515
37	0xb8dae1a4	-0.00010437079
38	0xb981e8ce	-0.0002477825
39	0xba09c555	-0.000525554
40	0xba9ddfdf	-0.0012044868
41	0xba229216	-0.0006201578
42	0x3b322b2e	0.0027186382
43	0x39647d2e	0.00021790407
44	0xba9c7e0f	-0.0011939424
45	0xbd07d787	-0.033164527
46	0x39b77f37	0.00034999262
47	0xbe130610	-0.14357781
48	0x3d95eaed	0.07320199
49	0x39c42584	0.00037411985
50	0xba27d68d	-0.0006402515
51	0xbd93dfdf	-0.072204344
52	0xbb1224bf	-0.0022299734
53	0x3dd51719	0.10404796
54	0x39d7a1b9	0.00041128488
55	0xbb21e4c9	-0.0024703017
56	0x39522c5e	0.00020043689
57	0x398bb95c	0.0002665025
58	0x3a999d10	0.0011719782
59	0xbd2fe117	-0.04293927
60	0xbdce952c	-0.10087046
61	0x39dc3505	0.00042001173
62	0xb984cb7e	-0.00025328615
63	0x389b9abe	7.419799e-05
64	0xbc06d49b	-0.0082294
65	0x3bba9c0c	0.005694872
66	0x3e1c59de	0.15268657
67	0xb63fa100	-2.8554932e-06
68	0x39aeb05b	0.0003331926
69	0x3e2b590b	0.16733186
70	0xbd490a68	-0.04908219
71	0xba80a595	-0.0009814972
72	0x39558785	0.00020363748
73	0x3b39f1f1	0.0028372968
74	0x3d402b8b	0.046916526
75	0x3c501cd7	0.012702188
76	0x3a105958	0.00055064773
77	0x384c7b72	4.8752358e-05
78	0xbb1deba4	-0.0024096752
79	0x3bf96f70	0.0076121613
80	0xbb434c79	-0.002980022
81	0xba062473	-0.00051171257
82	0xb8958ad4	-7.1307324e-05
83	0x3c42380b	0.011854182
84	0xba64c22c	-0.00087264436
85	0xbd60a08d	-0.054840613
86	0xb893ae3d	-7.0419606e-05
87	0x3952e9ce	0.0002011426
88	0xbd95b757	-0.0731036
89	0xbda2268f	-0.07917511
90	0xbe11df65	-0.14245375
91	0x3a36068d	0.0006943725
92	0xbd1d4574	-0.038396314
93	0xb9b3d3e8	-0.00034299423
94	0x39b88a3e	0.00035198213
95	0xbd3074c8	-0.04308012
96	0xbc25f1cb	-0.010128449
97	0xba1877b0	-0.00058161747
98	0x3c7b7f3f	0.015350162
99	0xb9e409c3	-0.00043494822
100	0x39afe02e	0.00033545628
101	0xbd0022be	-0.031283133
102	0xbdcc118e	-0.09964286
103	0x3e609383	0.21931271
104	0xbdb2ffd7	-0.08740204
105	0x39db8b40	0.00041874684
106	0xb9011e78	-0.00012313749
107	0xbbd9b080	-0.006643355
108	0x3e484a3e	0.19559571
109	0xb908aaac	-0.00013033551
110	0x3b11c758	0.0022244062
111	0xb95c245f	-0.00020994384
112	0x3dde8cd3	0.10866704
113	0x3b923cdd	0.004462822
114	0x386d9e92	5.6652883e-05
115	0x3da645f4	0.08118811
116	0xb93724fc	-0.00017466018
117	0x3acfeeeb	0.001586405
118	0xba3484a2	-0.0006886219
119	0x3ea67858	0.3251369
120	0x3d92be5d	0.07165215
121	0x38713c2d	5.751492e-05
122	0x3a0e73af	0.00054341083
123	0xbd4e3a30	-0.05034846
124	0xb97f4dee	-0.00024347726
125	0xbdda684c	-0.10664424
126	0xbdf3dbe0	-0.11907172
127	0xb99845ca	-0.00029043696
128	0x395c373f	0.00021001416
129	0x3a065d79	0.0005125623
130	0x3d85eba3	0.06539085
131	0xb7b7384c	-2.1841515e-05
132	0xb9de8465	-0.0004244178
133	0xba7b7892	-0.00095928565
134	0x3a0e8ebd	0.000543814
135	0xbd089405	-0.033344287
136	0xb937490f	-0.00017479456
137	0xb8b3c9cb	-8.572972e-05
138	0xba8a9ef5	-0.0010575937
139	0x3ce7d2e9	0.028298812
140	0xb94518dc	-0.00018796645
141	0xb9337b74	-0.0001711676
142	0xbe2ed8ed	-0.17074938
143	0x3a02a484	0.0004983621
144	0x3d90255e	0.07038377
145	0xbb08da11	-0.002088193
146	0x3a550a6b	0.00081268576
147	0x3c821603	0.015879637
148	0x3956a7dd	0.00020471164
149	0x388bb06c	6.6608976e-05
150	0x3b4784ad	0.003044407
151	0x39e763c8	0.00044134096
152	0x3c241cdf	0.010016649
153	0x3a0e1701	0.0005420298
154	0x392da36a	0.00016559442
155	0xbda23c22	-0.07921626
156	0xb8824c06	-6.2130435e-05
157	0xb9937a84	-0.00028129306
158	0xb99f569f	-0.0003039138
159	0x3b6c0058	0.0036010947
160	0x3a206a9f	0.00061194034
161	0xba50a3e2	-0.0007958991
162	0x38155dbc	3.5611665e-05
163	0xbda7c286	-0.08191399
164	0x3c134576	0.008988729
165	0x3728ffc8	1.0073134e-05
166	0xb9c2f15d	-0.00037182393
167	0x383601b4	4.3393768e-05
168	0xbafc1f43	-0.0019235391
169	0x39e83e72	0.00044297014
170	0x39a3ce3b	0.00031243436
171	0x39634992	0.00021675814
172	0x39980077	0.00028992046
173	0x3b8d98a6	0.0043211756
174	0xbb877a46	-0.004134449
175	0xb9cc8058	-0.00039005536
176	0xb8dcee03	-0.000105347506
177	0xb9ae11bf	-0.00033201088
178	0x390f9383	0.00013692495
179	0x3d029a95	0.031885702
180	0x3863695e	5.421915e-05
181	0x39f26494	0.00046232773
182	0x38270f9c	3.983044e-05
183	0xbcde992a	-0.027172644
184	0xba2a2c2c	-0.00064915675
185	0x389633f0	7.1622315e-05
186	0x3a08a877	0.00052130915
187	0x38ace5ae	8.24438e-05
188	0x3919ba8d	0.00014660713
189	0x3d902050	0.07037413
190	0xba855deb	-0.0010175084
191	0xbe56986e	-0.20956585
192	0x39145d09	0.00014149038
193	0xbd6b9f21	-0.057524804
194	0xbc288c26	-0.01028732
195	0xba8f040d	-0.0010911241
196	0x3ae313ab	0.0017324587
197	0xbb82dabd	-0.003993361
198	0x3c6e0410	0.014527336
199	0x3baee99e	0.005337908
200	0xbe05118f	-0.1299498
201	0x39279466	0.00015981644
202	0x3bebe8f2	0.0071994
203	0x3f052600	0.5201111
204	0x3b99db7b	0.0046953536
205	0xba1bd9b3	-0.00059452205
206	0x39a5d42f	0.00031629342
207	0x39846373	0.00025251097
208	0xb9d3b3de	-0.00040379068
209	0x390a27e0	0.0001317556
210	0xbd8b723b	-0.06808897
211	0xb94416d6	-0.00018700524
212	0x3ab19bc6	0.0013550452
213	0xb8c89306	-9.5641284e-05
214	0xbbc9057e	-0.006134688
215	0xbe29e390	-0.16590714
216	0x3d311807	0.043235805
217	0xbe8eb818	-0.27874827
218	0x3e979bdc	0.296111
219	0x3a0b14fa	0.0005305555
220	0xba4087d4	-0.0007344459
221	0x3a295bc9	0.00064605154
222	0x39eed052	0.00045550108
223	0xbe26028a	-0.16211906
224	0x39880f66	0.00025951414
225	0xbe0479cf	-0.12937091
226	0x3ebbfed1	0.36717847
227	0x3885d96c	6.382432e-05
228	0xba30543f	-0.0006726421
229	0x3be7ddee	0.0070760166
230	0xb838b1a4	-4.403446e-05
231	0xbaf5fe4a	-0.0018767801
232	0xbe3428d2	-0.17593697
233	0x3966536f	0.0002196559
234	0x39c946e7	0.00038390534
235	0x38143dfa	3.534367e-05
236	0x3be253e3	0.0069069727
237	0xbd34ea59	-0.044168804
238	0xbd1cc29d	-0.038271535
239	0xba035666	-0.0005010128
240	0xb98309f0	-0.0002499367
241	0xba248e9f	-0.0006277356
242	0xba5ddade	-0.0008463095
243	0xba1d6c23	-0.00060051883
244	0x3d2da520	0.042393804
245	0xbdcb23ec	-0.09918961
246	0xbd002a1e	-0.031290166
247	0xbab1753e	-0.0013538969
248	0x381ff2d7	3.8134716e-05
249	0x398304f3	0.00024989955
250	0xb77481f0	-1.4573787e-05
251	0x393b767a	0.00017877846
252	0x38b97071	8.842431e-05
253	0xb9aeeb55	-0.00033363202
254	0x39238169	0.000155931
255	0xbdd54aff	-0.10414695

edge_classifier.0.bias f4 [256]
0	0x3ccfce92	0.025367055
1	0x3deb7329	0.114965744
2	0xbbd917d0	-0.006625153
3	0x3cc204bc	0.023683898
4	0x3dd96cd2	0.10616459
5	0x3bdd4284	0.006752314
6	0xbd8876a1	-0.06663252
7	0xbcccb8d6	-0.02499048
8	0x3da2c51a	0.079477504
9	0x3caa20f8	0.020767674
10	0x3c735e2f	0.014853998
11	0xbd1085bc	-0.03528379
12	0xbd8feb02	-0.07027246
13	0xbd5707be	-0.052497618
14	0xbd9078bc	-0.07054278
15	0x3bda2527	0.006657261
16	0xbd1e9a29	-0.038721237
17	0x3c48de62	0.012260051
18	0x3c0b7e4e	0.008514
19	0xbd9bda74	-0.07610026
20	0xbd3bf0a4	-0.04588379
21	0xbb6d61be	-0.003622159
22	0x3cd35465	0.025797078
23	0x3e01126d	0.12604685
24	0xbd2907bc	-0.04126714
25	0x3d045eb4	0.03231688
26	0xbd9ce84c	-0.076614946
27	0x3db464ce	0.088082895
28	0x3db63bdc	0.08898136
29	0xbbee736e	-0.007276944
30	0x3c62212f	0.013801857
31	0x3d17c25f	0.0370506
32	0x3dab2d5d	0.08358262
33	0xbd8d346e	-0.06894766
34	0xbcd50245	-0.026002059
35	0x3c579a40	0.013159335
36	0x3c8fa49d	0.017534548
37	0xbc739ceb	-0.014868955
38	0xbc8044cb	-0.015657803
39	0x3d46f324	0.04857172
40	0x3c863fa9	0.016387777
41	0xbd6221d6	-0.05520805
42	0x3ca06c9f	0.019583045
43	0xbbec4750	-0.0072106495
44	0x3d75e46f	0.060032304
45	0xbd5b9073	-0.053604554
46	0xbdc71c08	-0.097221434
47	0x3d8dbc7a	0.06920715
48	0xbb2ccad7	-0.002636602
49	0x3dce1ec6	0.10064463
50	0x3d10ab9b	0.035319906
51	0x3d429145	0.04750182
52	0xbb77470e	-0.003773156
53	0xbd32b9ef	-0.04363435
54	0xbd636d65	-0.05552425
55	0xbce22d4a	-0.027609486
56	0x3cb6bc15	0.022306481
57	0xbd97c3c1	-0.07410384
58	0x3d5878d8	0.05284962
59	0x3c193362	0.0093506295
60	0x3ba6901e	0.005083098
61	0xbd0570d9	-0.032578323
62	0xbdb7f161	-0.08981586
63	0x3da2b936	0.079454824
64	0xbda691e6	-0.08133297
65	0xbd374b1c	-0.044749364
66	0x3dc88607	0.09791189
67	0xbd97f511	-0.074197896
68	0xbd245b2b	-0.040126007
69	0x3d828635	0.06373254
70	0x3d26baa6	0.040705346
71	0xbbbb197c	-0.005709825
72	0xbd96dca6	-0.07366304
73	0xbd08b408	-0.033374816
74	0xbd536e2d	-0.051618744
75	0xbdac167d	-0.08402727
76	0xbcdc4008	-0.026886001
77	0xbd401f75	-0.046905
78	0xb9885308	-0.00026001805
79	0x3dc752bb	0.097325765
80	0x3c49520a	0.012287626
81	0xbd4c8e26	-0.04994025
82	0xbc9445d8	-0.01809971
83	0xbd6c761a	-0.057729818
84	0x3d6aa70d	0.05728822
85	0xbd894ffc	-0.06704709
86	0xbd2c0ea9	-0.04200617
87	0x3c177652	0.009244518
88	0xbcedf72a	-0.029048521
89	0xbce63c23	-0.028104847
90	0xbd290758	-0.04126677
91	0x3d21270e	0.039343886
92	0xbd1a1c7f	-0.037624832
93	0x3d010ee4	0.03150834
94	0xbcfc6f12	-0.030814681
95	0xbdc67f55	-0.096922554
96	0x3cb2e8dc	0.021839552
97	0x3d496a9a	0.04917393
98	0xbd2afb24	-0.041743413
99	0xbd9550d1	-0.07290805
100	0x3b63857f	0.003471702
101	0xbd9a874a	-0.075453356
102	0xbcae19a1	-0.021252455
103	0x3da92eae	0.082608566
104	0xbd804488	-0.06263071
105	0xbd1c79b1	-0.03820199
106	0x3c9deddb	0.019278457
107	0xbcd22222	-0.025651041
108	0xbd910493	-0.070809506
109	0x3d14eb4e	0.036357217
110	0x3d46b625	0.04851355
111	0xbbae1858	-0.0053129606
112	0xbda0e34a	-0.07855852
113	0xbb45399e	-0.0030094157
114	0xbd688c54	-0.056774452
115	0x3dd945f6	0.10609047
116	0xba05c012	-0.0005102168
117	0xbc840e1f	-0.016120015
118	0x3d1b40d1	0.03790361
119	0xbd189fe2	-0.03726185
120	0x3d00f8d7	0.031487312
121	0xbd2a0dd1	-0.041517083
122	0xbac10d5d	-0.0014728714
123	0xbc3237b0	-0.010877535
124	0x3afae356	0.0019141238
125	0xbccf4aad	-0.025304163
126	0x3c875589	0.016520279
127	0xbd82b214	-0.06381622
128	0xbcc89ee7	-0.024489833
129	0x3d2d446c	0.04230158
130	0xbc8ff6d9	-0.01757376
131	0xbd2bca50	-0.041940987
132	0x3ca5d536	0.020243268
133	0xbdabbd20	-0.08385682
134	0x3cd49dc7	0.02595414
135	0x3ca6168d	0.020274425
136	0x3ca36818	0.019947097
137	0xbc80bf2e	-0.015716162
138	0x3d61abd6	0.055095516
139	0xbc904e72	-0.01761553
140	0xbd3ff911	-0.046868388
141	0xb8d0219c	-9.924473e-05
142	0xbd3d46a4	-0.046209946
143	0xbd79c1d6	-0.060975872
144	0xbcf3b634	-0.029749967
145	0xbca2efec	-0.019889794
146	0xbca60471	-0.02026579
147	0x3cbbf70c	0.02294495
148	0xbd3d433c	-0.046206698
149	0xbd190cc3	-0.037365686
150	0x3d198124	0.037476674
151	0xbcaa7b4b	-0.020810744
152	0x3d49a4f2	0.04922957
153	0xbd519df3	-0.051176023
154	0xbd324df1	-0.043531362
155	0xbc332f1c	-0.010936525
156	0xbda5fa6b	-0.08104404
157	0xbd666984	-0.05625297
158	0xbc8289f9	-0.015934931
159	0x3d51ce7b	0.051222306
160	0x3b55a4f4	0.003259954
161	0x3c515cd0	0.012778476
162	0xbd1150e7	-0.035477545
163	0xbd41da2d	-0.04732721
164	0x3da9ebdd	0.082969405
165	0xbb4a852a	-0.0030902126
166	0x3d495410	0.049152434
167	0xbd6553f4	-0.055988267
168	0xbc3424e0	-0.01099512
169	0xbce0f1fb	-0.027459135
170	0xbd1b1945	-0.037865896
171	0xbbc8b433	-0.006124997
172	0xbd7e2c54	-0.062053993
173	0xbd59aa29	-0.053140793
174	0xbd478a23	-0.04871572
175	0xbcc5f72f	-0.024165718
176	0xbd4a5245	-0.049394865
177	0x3d7449e2	0.059640773
178	0xbd9af964	-0.07567099
179	0xbd51e89b	-0.05124722
180	0xbd636093	-0.055512022
181	0xbbc55232	-0.0060217613
182	0x3dc049ef	0.09389102
183	0x3ac10906	0.0014727421
184	0x3cc073d9	0.02349274
185	0xbd1c16fd	-0.03810786
186	0x3d5a24fd	0.05325793
187	0xbd89ea3c	-0.0673413
188	0xbd00040e	-0.031253867
189	0xbd7c9da5	-0.06167378
190	0x3c8603ef	0.016359298
191	0x3c757fe8	0.0149841085
192	0xbb431bac	-0.0029771132
193	0xbd62d381	-0.055377487
194	0xbc5dfe51	-0.013549403
195	0xbcd8c304	-0.026460178
196	0xbcc92208	-0.02455236
197	0x3d068c03	0.03284837
198	0xbce7fe57	-0.02831952
199	0xbbb0b71d	-0.0053929226
200	0x3d875439	0.06607861
201	0xbbb42827	-0.0054979506
202	0x3d15e1c7	0.03659227
203	0xbd9b3738	-0.075788915
204	0xbd2b5f60	-0.041839004
205	0x3d5c2609	0.05374721
206	0x3c7a1d8e	0.015265835
207	0x3d612f35	0.05497666
208	0x3bddc85e	0.0067682704
209	0xbbd974eb	-0.006636252
210	0xbd268d3e	-0.040662043
211	0xbc9c6416	-0.019090693
212	0xbe002669	-0.12514652
213	0x3dc27456	0.094948456
214	0xbcfdda33	-0.030987835
215	0xbbaa81d9	-0.0052034673
216	0xbd854c62	-0.065087095
217	0x3d5a260f	0.05325895
218	0xbdbdff06	-0.092771575
219	0x3aeadaa0	0.0017917939
220	0xbc931eb1	-0.01795897
221	0x3d87aaf2	0.06624402
222	0xbd23ab47	-0.039958265
223	0x3da3a7a9	0.07990963
224	0xba9d8568	-0.0012017908
225	0xbda1346e	-0.07871328
226	0x3d689be7	0.056789305
227	0xbd76b111	-0.060227457
228	0xbc336d88	-0.010951407
229	0x3da2cd8c	0.07949361
230	0xbc8e1c68	-0.01734753
231	0x3d5c3ab9	0.05376694
232	0x3e11eccf	0.14250492
233	0xbd561846	-0.052269243
234	0xbd9babc1	-0.07601119
235	0x3d021895	0.031761725
236	0x3ddecb13	0.10878577
237	0xbc33e6e0	-0.010980338
238	0xbb51dceb	-0.0032022547
239	0xbd519fa7	-0.051177647
240	0xbd1cadd9	-0.03825173
241	0xbdb5c939	-0.08876271
242	0xbd1abe0d	-0.037778903
243	0x3d705fee	0.058685236
244	0x3cbadf48	0.022811547
245	0xbd9254ab	-0.071450554
246	0x3d3ae553	0.045628857
247	0x3bf65328	0.007517237
248	0xbd89f3c5	-0.067359485
249	0xbd89ebf1	-0.067344554
250	0x3d9d1a46	0.07671027
251	0xbd1c833f	-0.038211104
252	0xbd55cc79	-0.052196953
253	0xbd758f0d	-0.059950877
254	0x3d152f21	0.0364219
255	0xbcf4c024	-0.029876776

edge_classifier.3.weight f4 [128, 256]
0	0xb9254f9c	-0.00015765283
1	0x383b6c34	4.4685046e-05
2	0xbc128a16	-0.008944055
3	0x3a417b1c	0.00073807104
4	0xbd0bf272	-0.03416676
5	0xbd66e914	-0.056374624
6	0xbc784566	-0.015153265
7	0xbbb7f1b6	-0.005613531
8	0xbbaa7e4e	-0.005203045
9	0xb7a73040	-1.993042e-05
10	0xbcae81f9	-0.02130221
11	0x39a4ff7a	0.00031470862
12	0xbb29fc9b	-0.0025937918
13	0xbaea0882	-0.0017855319
14	0x39bf91f4	0.00036539102
15	0xb920d22b	-0.00015337083
16	0xbb3bd62f	-0.00286616
17	0xbd0b3885	-0.033989448
18	0xbc91261b	-0.017718365
19	0xb9d8d492	-0.00041357108
20	0xb98d8899	-0.0002699539
21	0xb93d76c0	-0.00018068682
22	0xb9d7df7f	-0.00041174513
23	0xba0791c9	-0.0005171565
24	0x39b8d178	0.0003525128
25	0x3a172c3e	0.00057667855
26	0x39f956fb	0.00047557786
27	0xbc961746	-0.018321645
28	0x39081642	0.00012978262
29	0xbb9ae023	-0.004726426
30	0xb9952ff4	-0.00028455222
31	0x39734226	0.00023198928
32	0xbb376505	-0.0027983796
33	0x3934c518	0.00017239561
34	0xb9740967	-0.00023273156
35	0x39d35fe6	0.00040316506
36	0xbb203c24	-0.002444991
37	0xbd1d95a0	-0.03847277
38	0x3a14c619	0.0005675271
39	0xbc70d064	-0.014698122
40	0xbc0a6007	-0.008445746
41	0x3a460ac6	0.0007554706
42	0xbc0283ad	-0.007965964
43	0x39a5c5c5	0.00031618602
44	0xbc288228	-0.010284938
45	0xb90584ed	-0.00012733387
46	0xbd2ca8ef	-0.042153295
47	0xb93d8b36	-0.00018076305
48	0x3a5ae102	0.0008349569
49	0xb9964f92	-0.00028669514
50	0x39141092	0.00014120553
51	0xb98807f0	-0.00025945855
52	0xbca9cbe5	-0.020727107
53	0xb9d00e91	-0.00039683704
54	0xbad52a7a	-0.0016263269
55	0xbc82a142	-0.015946034
56	0xbc5af6a6	-0.01336447
57	0xb95993ee	-0.00020749841
58	0xbd5eb81c	-0.0543748
59	0xbc822e38	-0.01589118
60	0xb9800e64	-0.00024424784
61	0x3a00728c	0.00048998813
62	0x394e4548	0.000196715
63	0xbcab7eae	-0.020934429
64	0xbae2b24f	-0.0017295572
65	0xba928022	-0.0011177103
66	0xbcf33046	-0.029686105
67	0xbc6b6a94	-0.014368672
68	0xba47929a	-0.0007613093
69	0xbc7a6ebd	-0.015285191
70	0xbca5e430	-0.02025041
71	0x38037508	3.1341828e-05
72	0xbbdf1b05	-0.006808641
73	0x3b1cda0e	0.0023933682
74	0x394cad2d	0.00019519469
75	0x3a260117	0.000633256
76	0xba63dad2	-0.00086919696
77	0xbc2d7fda	-0.010589564
78	0xb9ad866f	-0.00033097292
79	0x3a94a65e	0.0011341085
80	0x3a749b9c	0.0009331049
81	0x38e33204	0.000108335196
82	0xbb0703c7	-0.0020601617
83	0xb93b496b	-0.0001786106
84	0xbb70e9e2	-0.0036760499
85	0xbd4be12c	-0.049775288
86	0xbb7a5d9c	-0.0038202768
87	0x395bbb44	0.0002095523
88	0x3a59db39	0.000831056
89	0xb94c663c	-0.00019493041
90	0xb9f74989	-0.000471663
91	0xb9a60bf7	-0.00031670902
92	0x39cd4028	0.00039148447
93	0x396e7c89	0.00022743842
94	0x38de495b	0.000105994484
95	0x3ad18ba2	0.0015987048
96	0x38d9e9d4	0.0001039092
97	0xbd144c8f	-0.036205824
98	0xba13e908	-0.00056423293
99	0x3919717c	0.00014633493
100	0xbd6aab39	-0.057292197
101	0xb913a4ce	-0.00014080407
102	0xb8b305b2	-8.536446e-05
103	0xbc4936e0	-0.01228115
104	0x39085e78	0.00013005163
105	0xb94689f7	-0.00018934147
106	0xb9334dd5	-0.00017099765
107	0x38fbc3f9	0.000120051154
108	0x3b25df5a	0.002531013
109	0xbc5ae9e1	-0.013361425
110	0xba9a4eba	-0.001177273
111	0xba048cd8	-0.0005056388
112	0x3b03e5a2	0.0020125885
113	0xbb8b9e22	-0.0042607943
114	0x38c3aae0	9.3301525e-05
115	0xbc1c80fc	-0.009552237
116	0xb91edb27	-0.00015149695
117	0x3b2e8dbf	0.002663478
118	0xbb9a7927	-0.0047141495
119	0x3aac1580	0.0013128966
120	0xbd0b108a	-0.03395132
121	0xbacfc423	-0.00158513
122	0xbc585e52	-0.013206081
123	0x39dc26c4	0.00041990553
124	0x3b203cb6	0.002445025
125	0xbd121d2d	-0.035672355
126	0xbcd09a34	-0.025464155
127	0xbb23ce76	-0.0024994886
128	0xb8cc8d16	-9.753757e-05
129	0xba1f3d18	-0.00060744723
130	0xba1f9c99	-0.00060887035
131	0xb97c8864	-0.00024083402
132	0x3a642cc6	0.00087041815
133	0x3a04379d	0.00050436874
134	0xbbca9c16	-0.0061831577
135	0x3af44591	0.0018636455
136	0xba9e05d5	-0.0012056181
137	0xb9b0781a	-0.0003365882
138	0xbb568cc2	-0.0032737707
139	0x39f0f98a	0.00045962288
140	0xb9aea369	-0.00033309616
141	0xbc801d71	-0.015639039
142	0x3889271e	6.539955e-05
143	0x3988bdb4	0.0002608128
144	0xbcc85e35	-0.024458984
145	0x391c104d	0.00014883392
146	0xba38cf46	-0.0007049929
147	0xbc5860e3	-0.013206693
148	0x377cbc90	1.5064274e-05
149	0x395a10fb	0.00020796426
150	0xbc964588	-0.018343702
151	0xb945da38	-0.00018868677
152	0xb931e42a	-0.00016965033
153	0x3935ff52	0.0001735662
154	0x3741eb00	1.1558412e-05
155	0xb9822c87	-0.00024828708
156	0x3a0ce4ac	0.0005374651
157	0x389ab11f	7.3762836e-05
158	0x3a1fc66d	0.00060949364
159	0x393216f4	0.00016983954
160	0x3904c97c	0.0001266356
161	0x39857bbb	0.00025459923
162	0xb8da5299	-0.00010410435
163	0x3a3e465d	0.000725841
164	0x3a48bbae	0.0007657361
165	0x3a8e00c7	0.0010833972
166	0xba794646	-0.0009509068
167	0x3a337071	0.0006845063
168	0xbafbe6f9	-0.0019218615
169	0xb911f6ec	-0.00013920263
170	0xbc91bf91	-0.017791541
171	0x3992a6c5	0.00027971543
172	0x394d9482	0.00019605647
173	0xbca4aecf	-0.020102886
174	0xbd15fa1d	-0.03661548
175	0x39c82168	0.00038171862
176	0xba1ad504	-0.00059063756
177	0xbb76bb8c	-0.0037648408
178	0x3908455e	0.00012995812
179	0xb897c09e	-7.236119e-05
180	0xbd32543f	-0.043537375
181	0xb8098a23	-3.2791995e-05
182	0x3914658e	0.00014152212
183	0xb9822c86	-0.00024828705
184	0x37b6e458	2.1802422e-05
185	0x3a12d7f8	0.000560164
186	0x3a5a3210	0.00083235
187	0xbad9bfa4	-0.00166129
188	0x3a126603	0.0005584659
189	0xbd093d12	-0.033505507
190	0xbc27c4b5	-0.01023977
191	0xbaa65e9c	-0.0012692991
192	0xba8b760f	-0.0010640043
193	0x3a4a857a	0.0007725578
194	0x3aeb7fb2	0.0017967133
195	0xbd6fbf23	-0.05853189
196	0xb9edd90b	-0.00045365872
197	0xba99ddcc	-0.0011739074
198	0x3973b861	0.00023242972
199	0xb8839162	-6.2736464e-05
200	0xbca8bc34	-0.020597555
201	0xbd30a69b	-0.043127637
202	0x3931d516	0.00016959416
203	0x381af6a9	3.694618e-05
204	0xb84682ce	-4.73287e-05
205	0xbc98aab0	-0.018636078
206	0xbc69daef	-0.014273389
207	0x3ac5c9f8	0.0015090099
208	0xbb0daeed	-0.0021619156
209	0xb823134c	-3.88802e-05
210	0xbbf27b6d	-0.0073999674
211	0xbb6c436f	-0.0036050936
212	0x39cb350a	0.00038758694
213	0xba01a115	-0.00049449626
214	0xbca66417	-0.020311398
215	0xb9cb4814	-0.0003877288
216	0xbccc34ad	-0.024927462
217	0xb9c68423	-0.00037863952
218	0x3837755c	4.37399e-05
219	0xb7790000	-1.4841557e-05
220	0x3a248efc	0.000627741
221	0xbbc78f9d	-0.006090118
222	0xbcae7776	-0.021297198
223	0xbab6bd68	-0.0013941946
224	0xb94c3bf0	-0.00019477285
225	0x398bb2c2	0.0002664533
226	0xbc3b078a	-0.011415372
227	0xbc37793f	-0.011198341
228	0xbc1ff66d	-0.009763342
229	0x3a7b9f58	0.0009598634
230	0xba84b1cd	-0.001012379
231	0xbd1702c6	-0.03686788
232	0xbc56e6e7	-0.013116575
233	0xb9a9f2e8	-0.0003241517
234	0x36badcc0	5.5689306e-06
235	0xbc2b6055	-0.010459979
236	0xbd1cf3bc	-0.03831838
237	0x395bac59	0.00020949672
238	0xbb6789e0	-0.0035329983
239	0xb95d55a1	-0.00021108102
240	0xb9491356	-0.00019176057
241	0xbd1f32e9	-0.03886691
242	0xb90bcbbc	-0.0001333197
243	0xbaee9f7f	-0.0018205493
244	0x39b66850	0.00034791464
245	0xba027928	-0.000497716
246	0xba0cddeb	-0.00053736445
247	0xb9cbbe3a	-0.00038860907
248	0xbcb9fcc9	-0.022703545
249	0x3a0562f5	0.0005088293
250	0xb79dff60	-1.8834777e-05
251	0xb9c37eb6	-0.00037287705
252	0x393fba8f	0.00018284678
253	0x3a4fb4d3	0.0007923368
254	0xbbdb06c5	-0.0066841566
255	0xbbd9d280	-0.006647408

edge_classifier.3.bias f4 [128]
0	0xbcb7c145	-0.022431025
1	0x3d96f2da	0.07370539
2	0xbceda0fe	-0.029007431
3	0xbd2d9338	-0.042376727
4	0xbcfd8be4	-0.030950494
5	0xbcfb2921	-0.03065926
6	0x3beead9b	0.007283879
7	0xbcfd705d	-0.030937368
8	0x3d44e5c6	0.04807069
9	0xbd2fdc7c	-0.04293488
10	0xbcabb869	-0.020961957
11	0xbcbe690a	-0.023243446
12	0xbcab9320	-0.020944178
13	0xbd3a067d	-0.045416344
14	0x3d81d2da	0.06339045
15	0xbd6b83a5	-0.057498593
16	0x3dd43987	0.10362535
17	0x3d34589d	0.04402982
18	0xbceb95f7	-0.028758032
19	0xbd2ef9ed	-0.042718817
20	0xbd8fbc9f	-0.070183985
21	0xba6f62a5	-0.00091318256
22	0xbc9bb4da	-0.019007135
23	0xbc84d99a	-0.016217042
24	0xbcdb53c3	-0.02677334
25	0x3dc55eb8	0.09637207
26	0xbcd1d06c	-0.025612079
27	0xbd96a4c2	-0.07355644
28	0xbda19fd9	-0.07891817
29	0xbd64a110	-0.055817664
30	0xbce08e84	-0.027411707
31	0xbb93377e	-0.004492699
32	0xbda5cc04	-0.080955535
33	0x3d3a1235	0.04542752
34	0xbd84fbac	-0.06493315
35	0xbd92cc5b	-0.07167884
36	0xbcc7b813	-0.024379766
37	0x3d910a67	0.07082062
38	0xbc959f35	-0.018264392
39	0x3d572ffc	0.052535996
40	0x3ddff80f	0.10935985
41	0xbd51a406	-0.051181816
42	0xbd1df1b1	-0.038560573
43	0x3d668742	0.056281336
44	0xbd025a9e	-0.0318247
45	0xbd02b451	-0.031910244
46	0xbd42aca1	-0.047527913
47	0x3da1e3fc	0.07904813
48	0xbd88f6f4	-0.066877276
49	0x3d9f3f96	0.077758
50	0xbdab9351	-0.08377708
51	0xbd4d3c88	-0.050106555
52	0x3d0807ab	0.033210438
53	0x3c10fb6f	0.008849009
54	0x3d14758a	0.036244906
55	0xbd7cbc4b	-0.061703008
56	0xbdac3499	-0.0840847
57	0xbd6a41ef	-0.057191785
58	0xbe00991e	-0.1255841
59	0x3d08c8a9	0.03339449
60	0xbd206450	-0.039158165
61	0x3df7d023	0.12100246
62	0xbd537723	-0.05162729
63	0xbd0c0be0	-0.034191012
64	0x3e13469b	0.14382403
65	0x3c48a4cc	0.012246322
66	0x3dba4b29	0.09096367
67	0x3b26ac74	0.002543238
68	0xbd098b1e	-0.033579938
69	0xbc527d18	-0.0128472075
70	0x3c9cc23e	0.01913559
71	0x3c16c573	0.009202349
72	0x3ccdadee	0.02510735
73	0x3e064ec6	0.13115987
74	0xbd5e7168	-0.05430737
75	0xbd06a5ec	-0.03287308
76	0x3d2e634f	0.042575177
77	0xbd493e68	-0.04913178
78	0x3dfba7fe	0.12287901
79	0x3d3f78c3	0.046746027
80	0xbcad8b96	-0.021184724
81	0xbcbc3d70	-0.022978514
82	0xbd22248c	-0.039585635
83	0xbd0c38ef	-0.034233984
84	0x3c99f2a7	0.018792463
85	0x3cb722fb	0.022355547
86	0xbcb6b49b	-0.022302916
87	0xbd734336	-0.05939027
88	0x3d52930b	0.051409762
89	0x3ab6059a	0.0013887167
90	0x3ccff0a7	0.025383307
91	0xbce0bd51	-0.027434023
92	0x3cef3110	0.0291982
93	0xbd6a8607	-0.057256725
94	0x3bc2f248	0.0059492923
95	0xbca7e645	-0.020495543
96	0xbd1072b2	-0.035265632
97	0xbdba73c1	-0.091041096
98	0x3e0cce68	0.13750613
99	0x3dd064ff	0.101755135
100	0xbdc25638	-0.09489101
101	0xbd640a57	-0.055673923
102	0x3daaccc7	0.083398394
103	0xbdac206e	-0.08404623
104	0xbd87ee03	-0.06637194
105	0xbd896951	-0.06709541
106	0xbd01e243	-0.03170992
107	0xbd7fa60d	-0.062414218
108	0x3c6a6be6	0.014307952
109	0x3dfbeb58	0.12300748
110	0x3de64532	0.11243667
111	0xbbde1628	-0.0067775436
112	0xbce2c1ed	-0.027680362
113	0xbc9de174	-0.019272543
114	0xbd0b7875	-0.034050424
115	0x3af9b413	0.0019050859
116	0xbcd4ef8a	-0.025993127
117	0xbda73bd1	-0.08165706
118	0xbd2a3544	-0.041554704
119	0xbd39fdd5	-0.04540809
120	0xbd8c646e	-0.06855093
121	0x3c8a40ab	0.01687654
122	0xbcc537fb	-0.024074545
123	0x3ce5f27a	0.028069723
124	0xbd801e27	-0.06255751
125	0xbcb4c14b	-0.022064826
126	0x3de04667	0.10950928
127	0xbddb782a	-0.10716279
