best_gnn_model.pt (torch, 223477 bytes, 9 tensors)

conv1.bias f4 [128]
-0.008788612 0.034154996 -0.0017328791 -0.06784343 -0.04230573 -0.14362536 -0.028269514 -0.024991978
0.06909405 -0.041948672 -0.10988678 -0.03437402 0.06021359 -0.013340991 0.0034335677 -0.030550864
-0.06553382 -0.09397738 -0.08952788 0.019091597 -0.08302131 -0.080467135 -0.13188216 -0.026652846
-0.025826145 -0.021632785 -0.07255252 0.014290911 0.022270072 0.026361562 -0.031677764 -0.04073264
-0.036148783 0.002134735 -0.018433282 -0.039932456 0.01745817 -0.017021615 -0.061299693 -0.028272402
-0.023877723 0.010638795 -0.033194058 -0.05731864 0.011262408 0.0092531545 -0.06892908 -0.03372406
-0.0012256283 -0.09509523 -0.005596486 -0.009436147 -0.023375569 -0.043912403 -0.040164195 -0.0733045
-0.027356034 -0.039676283 0.012032567 -0.011273259 0.008441494 -0.064858384 -0.058133774 0.038274556
-0.12258527 -0.071003005 -0.09029352 -0.052308492 -0.06807245 0.010174111 -0.03350336 -0.009541079
-0.04950571 -0.07176353 -0.0125479605 0.016270809 -0.05929041 -0.02256779 0.023481425 -0.01993744
-0.07953661 0.009077208 -0.02979419 0.013787379 0.008966282 -0.0021184704 -0.054355826 0.0002637047
-0.04042612 -0.022238007 -0.080541596 -0.06384258 -0.028080562 -0.071304426 -0.111548685 -0.044707857
-0.000102314865 0.028926378 0.019586148 -0.10513438 -0.057590697 -0.06275423 -0.061845608 -0.07516621
-0.06293851 -0.09741924 -0.07008825 -0.0029764757 -0.06704536 -0.07671589 -0.059500124 -0.08149925
-0.01052272 -0.030766007 -0.048452802 -0.09845253 -0.10806875 -0.014273441 -0.011699634 -0.00053485227
-0.071606345 -0.0028936835 -0.049386077 -0.06711605 -0.052967582 -0.05265647 -0.047234125 -0.10528674
00000000: 1cfe 0fbc 1ce6 0b3d c621 e3ba 7ff1 8abd
00000010: c648 2dbd 8712 13be 7895 e7bc fabb ccbc
00000020: 2e81 8d3d 5fd2 2bbd 520c e1bd c6cb 0cbd
00000030: 86a2 763d 2c94 5abc b505 613b ce45 fabc
00000040: 9836 86bd 3677 c0bd 655a b7bd fb65 9c3c
00000050: 1407 aabd f4cb a4bd 1e0c 07be 1257 dabc
00000060: 5a91 d3bc 3d37 b1bc 6a96 94bd 6d24 6a3c
00000070: ba6f b63c 34f4 d73c 8bc0 01bd 45d7 26bd
00000080: bf10 14bd e9e6 0b3b 6501 97bc 3790 23bd
00000090: 7004 8f3c ea70 8bbc 6315 7bbd 869b e7bc
000000a0: 379b c3bc 574e 2e3c 7ef6 07bd f3c6 6abd
000000b0: f785 383c 8b9a 173c b12a 8dbd 3d22 0abd
000000c0: 43a5 a0ba 4ac1 c2bd ba62 b7bb 129a 1abc
000000d0: 1f7e bfbc 7edd 33bd 3683 24bd ab20 96bd
000000e0: c319 e0bc 9983 22bd 3e24 453c 7ab3 38bc
000000f0: 314e 0a3c 79d4 84bd ae1d 6ebd c8c5 1c3d
00000100: fc0d fbbd 066a 91bd cfeb b8bd 6e41 56bd
00000110: 9269 8bbd 51b1 263c d23a 09bd 3052 1cbc
00000120: 80c6 4abd c2f8 92bd f695 4dbc 5c4a 853c
00000130: 80da 72bd 16e0 b8bc 1e5c c03c d853 a3bc
00000140: 17e4 a2bd 92b8 143c f212 f4bc 75e4 613c
00000150: 50e7 123c 09d6 0abb 37a4 5ebd d841 8a39
00000160: dc95 25bd 7b2c b6bc fef2 a4bd e6bf 82bd
00000170: 3509 e6bc 0e08 92bd a373 e4bd 961f 37bd
00000180: e091 d6b8 03f7 ec3c 2173 a03c b250 d7bd
00000190: 39e4 6bbd 4a85 80bd d251 7dbd bef0 99bd
000001a0: e8e5 80bd bd83 c7bd 6e8a 8fbd fa10 43bb
000001b0: 144f 89bd 381d 9dbd 67b6 73bd 14e9 a6bd
000001c0: 7d67 2cbc fe08 fcbc 7276 46bd 7ba1 c9bd
000001d0: 2653 ddbd 27db 69bc d2af 3fbc 5435 0cba
000001e0: 59a6 92bd f4a3 3dbb 0e49 4abd 2474 89bd
000001f0: 89f4 58bd 50ae 57bd 9278 41bd 93a0 d7bd

conv1.lin.weight f4 [128, 6]
-0.2517701 -0.06762355 0.13931656 0.2219765 0.097286075 0.14947905 -0.022039006 0.057404205
-0.0110910805 0.36165628 0.11835158 -0.1786759 0.13700609 -0.100888945 -0.17235683 0.34605226
0.14518246 0.054595686 -0.14377823 0.081179164 0.0019003104 -0.031152064 -0.21232891 0.16578113
-0.2188313 0.07803172 -0.07988356 -0.0016566697 -0.2236572 0.04774341 0.050584387 0.22306289
0.031080123 0.086218014 -0.06464274 -0.023208369 0.10135436 -0.07027141 -0.083831616 0.30058885
0.03192381 -0.116715394 -0.30720463 -0.11804179 -0.11874973 -0.09699554 -0.07453678 0.018433526
-0.102373004 -0.26500311 -0.04484688 0.25052792 0.050242856 0.009421902 -0.18490288 -0.11818582
-0.099441946 0.1497543 -0.23748536 0.20134391 0.00075359584 -0.028868185 -0.04513302 0.0012487127
0.06874207 0.1845447 -0.38588485 -0.050803263 0.06621107 -0.029836427 0.046721432 -0.14627312
-0.3586848 0.09413696 -0.09924757 -0.21938682 -0.13967906 0.02923535 0.15221652 -0.11974625
-0.0527434 -0.23428707 0.004054137 -0.040300783 0.14028344 0.12374874 -0.094902426 0.4083478
-0.05307484 -0.12691037 0.035392914 0.21989264 0.15863869 0.11042043 -0.121346064 0.012132335
-0.11083191 0.055870634 -0.024906509 -0.01523622 -0.1298928 -0.021204073 -0.07801114 -0.030368315
-0.12636092 0.023337254 0.07807153 -0.11069287 0.01677334 0.056760162 -0.08233265 -0.034188572
0.096058436 0.0909578 0.025406718 0.10246013 -0.07755803 0.30181164 0.085610494 0.018397005
-0.027609942 -0.04374714 -0.027599072 0.037475266 -0.015845574 0.030479833 0.090744235 0.061509605
-0.13055123 -0.18347467 0.16507442 0.26878822 -0.071706876 0.1578232 -0.044473603 0.01327666
-0.067179374 0.2044246 0.1340957 -0.11857107 -0.16794693 -0.07171203 -0.10043484 0.10157191
0.17095323 0.13783973 -0.109720744 -0.21155992 -0.05976444 -0.10543611 -0.20613606 0.05941973
0.099345624 -0.0056765485 0.053381354 0.1589005 -0.09733028 -8.540935e-05 0.038082134 0.005623851
-0.0053045657 0.23883374 0.026621833 0.067150496 -0.1790093 0.20701458 -0.008022685 0.00029639754
0.17987047 -0.023275193 0.0060704136 0.23925571 -0.15833546 -0.021106489 0.012558451 -0.08907367
-0.1565156 0.19187844 -0.056827713 -0.0023615984 -0.14958149 -0.124187484 0.10118466 -0.13136476
0.15561865 -0.111839704 -0.15983675 0.121873975 0.04434745 -0.089093335 -0.15617062 0.15740217
-0.1436887 0.107557 -0.07364567 -0.18532066 0.020906923 -0.12975372 0.00767224 -0.14310154
-0.09039011 0.2628424 -0.062413514 -0.17662214 0.060831558 0.07798974 -0.18298304 0.20421956
-0.12932199 0.0535117 0.0519348 0.036817715 0.14328632 0.12587863 -0.07562806 0.12419162
0.025544364 0.08854906 -0.123545066 0.38790104 0.11718015 -0.09569176 0.15631013 -0.07108297
0.07104454 -0.20034677 -0.051246934 0.0105722025 0.029017506 -0.048945315 -0.036676463 0.11776186
-0.008731837 0.043956585 0.14834115 0.1163904 0.07580029 0.32704177 0.03477654 0.17633884
0.15976293 -0.007911444 -0.016925622 -0.266283 0.023385022 0.026467578 -0.008957724 -0.05543797
-0.04988142 -0.19227467 -0.10633778 -0.11529281 -0.008283941 0.13496456 -0.09408813 -0.18463583
00000000: 03e8 80be 377e 8abd 00a9 0e3e cf4d 633e
00000010: ec3d c73d 0911 193e 258b b4bc ac20 6b3d
00000020: 5db7 35bc 032b b93e 5062 f23d d1f6 36be
00000030: 534b 0c3e dd9e cebd 4f7e 30be c32d b13e
00000040: b6aa 143e ba9f 5f3d 9a3a 13be 4341 a63d
00000050: d613 f93a 9d32 ffbc c06c 59be 87c2 293e
00000060: 5015 60be 18cf 9f3d fe99 a3bd 9c24 d9ba
00000070: 6506 65be 988e 433d 9331 4f3d 996a 643e
00000080: be9b fe3c 1293 b03d 6a63 84bd 7a1f bebc
00000090: e092 cf3d 75ea 8fbd e9af abbd c8e6 993e
000000a0: 8ac2 023d 7b08 efbd ed49 9dbe e5bf f1bd
000000b0: 0f33 f3bd 99a5 c6bd bda6 98bd e801 973c
000000c0: f0a8 d1bd 7dae 87be 5db1 37bd 3245 803e
000000d0: 74cb 4d3d 525e 1a3c 2e57 3dbe 680b f2bd
000000e0: 38a8 cbbd 3159 193e 5d2f 73be 192d 4e3e
000000f0: f68c 453a f97c ecbc 67dd 38bd d8ab a33a
00000100: a4c8 8c3d 49f9 3c3e b392 c5be 1517 50bd
00000110: ab99 873d 866b f4bc f95e 3f3d 9fc8 15be
00000120: 89a5 b7be e1ca c03d 4f42 cbbd f0a6 60be
00000130: 0708 0fbe f97e ef3c a6de 1b3e 863d f5bd
00000140: 7709 58bd f3e8 6fbe 91d8 843b 6f12 25bd
00000150: 76a6 0f3e fb6f fd3d 345c c2bd f612 d13e
00000160: 0165 59bd cbf4 01be 29f8 103d 892b 613e
00000170: 2e72 223e 1b24 e23d 4984 f8bd b4c6 463c
00000180: d7fb e2bd 9bd8 643d bc08 ccbc 57a1 79bc
00000190: 9e02 05be 2ab4 adbc 4ec4 9fbd f9c6 f8bc
000001a0: c264 01be c52d bf3c f7e3 9f3d f2b2 e2bd
000001b0: 3e68 893c 587d 683d 059e a8bd 5109 0cbd
000001c0: 49ba c43d 1548 ba3d c021 d03c 9ed6 d13d
000001d0: bfd6 9ebd 0e87 9a3e 8e54 af3d 51b5 963c
000001e0: 3f2e e2bc 3330 33bd 7317 e2bc aa7f 193d
000001f0: 94ce 81bc d8b0 f93c 1dd8 b93d 7ff1 7b3d
00000200: 39af 05be c9e0 3bbe 4509 293e 9c9e 893e
00000210: 0edb 92bd 689c 213e f429 36bd 5986 593c
00000220: 5795 89bd af54 513e 6250 093e 64d5 f2bd
00000230: 48fa 2bbe c2dd 92bd c8b0 cdbd ef04 d03d
00000240: 5d0e 2f3e dc25 0d3e 45b5 e0bd 2aa3 58be
00000250: 8fcb 74bd e3ee d7bd 5515 53be 1a62 733d
00000260: b875 cb3d 5702 babb 68a6 5a3d d0b6 223e
00000270: 1955 c7bd cc1d b3b8 03fc 1b3d 4848 b83b
00000280: ecd1 adbb d590 743e 0816 da3c 3386 893d
00000290: 374e 37be a1fb 533e 9471 03bc ce65 9b39
000002a0: f72f 383e 9eab bebc 52ea c63b 73ff 743e
000002b0: b122 22be 84e7 acbc f6c1 4d3c 426c b6bd
000002c0: a045 20be c87b 443e 2dc4 68bd 0cc5 1abb
000002d0: e42b 19be 0256 febd e739 cf3d 7c84 06be
000002e0: 7f5a 1f3e 370c e5bd 3fac 23be 1099 f93d
000002f0: aca5 353d 9176 b6bd 31eb 1fbe 092e 213e
00000300: 2123 13be d846 dc3d 8bd3 96bd b3c4 3dbe
00000310: ff44 ab3c 29de 04be 6a67 fb3b 3689 12be
00000320: 731e b9bd 4793 863e 50a5 7fbd 6fdc 34be
00000330: 832a 793d 16b9 9f3d e85f 3bbe ef1e 513e
00000340: fc6c 04be 162f 5b3d 96b9 543d 2cce 163d
00000350: a6b9 123e 54e6 003e e2e2 9abd 2d58 fe3d
00000360: 6a42 d13c 3659 b53d 3205 fdbd f79a c63e
00000370: 25fc ef3d 0bfa c3bd c30f 203e f393 91bd
00000380: cd7f 913d b427 4dbe 4ee8 51bd 0837 2d3c
00000390: 1fb6 ed3c e27a 48bd 0f3a 16bd 212d f13d
000003a0: fb0f 0fbc d20b 343d bee6 173e 175e ee3d
000003b0: 2f3d 9b3d 0572 a73e d871 0e3d 2b92 343e
000003c0: e598 233e 009f 01bc 9aa7 8abc 3f56 88be
000003d0: f291 bf3c 89d2 d83c 6bc3 12bc ed12 63bd
000003e0: 7650 4cbd a7e3 44be 9fc7 d9bd a31e ecbd
000003f0: 5eb9 07bc 2634 0a3e 47b1 c0bd 2d11 3dbe

conv2.bias f4 [128]
-0.032113813 -0.019410841 0.057164963 0.020444186 -0.06285181 -0.043479174 -0.06204947 0.07089561
-0.04161982 0.058940448 -0.0015020831 0.053944234 -0.072178744 0.015836306 -0.028011799 -0.046864647
0.046272244 0.053969786 -0.067316905 0.00026269176 -0.010623136 0.10314485 -0.08656384 -0.021299472
-0.037471153 -7.3265284e-05 0.04978317 -0.0028101243 0.04335001 -0.029393157 -0.066552624 -0.0036282083
-0.060970515 0.030165521 -0.032369703 -0.018552937 -0.066026285 -0.02357489 0.020196581 -0.02305071
0.025004964 0.028427605 -0.06786983 0.053237047 0.0230339 -0.04280308 -0.027575625 0.048202015
0.021229662 0.04598348 -0.050636463 0.042665813 -0.058549676 -0.024860393 -0.07970934 -0.02206119
0.08096349 -0.043701436 -0.051322173 0.0118518155 -0.03333667 -0.008327831 0.056193847 -0.0039973794
-0.0031858953 -0.035500195 0.023668626 0.03657734 0.021621544 -0.04508579 -0.060895503 -0.020835595
0.09026017 0.0666444 -0.00034855484 0.0050212825 -0.012854656 -0.03790714 -0.05830474 -0.019562589
-0.019434411 -0.051987484 0.074629925 0.008127659 -0.03350455 -0.072605215 -0.0006909993 -0.035571173
-0.026692774 -0.015501104 -0.09068601 -0.011682122 -0.03787685 -0.03455066 -0.026424313 0.030594712
0.009519417 -0.047477912 -0.011408849 -0.02859772 -0.012239053 -0.04353467 -0.022474116 -0.0077450713
0.032374892 0.0050265095 0.06387774 -0.0051642205 -0.027088117 -0.04568046 0.03089503 0.053512406
0.058707677 0.05267691 0.07528191 -0.11452678 0.050094623 0.04974353 -0.013254624 -0.03541975
-0.00677294 -0.06751297 -0.053804483 0.038218457 0.031615697 -0.02456218 0.06919404 -0.10004905
00000000: c689 03bd 7c03 9fbc cf25 6a3d 917a a73c
00000010: 73b8 80bd 3817 32bd 9627 7ebd b831 913d
00000020: 8b79 2abd 8a6b 713d 8ce1 c4ba a1f4 5c3d
00000030: 73d2 93bd 24bb 813c 0079 e5bc 25f5 3fbd
00000040: f787 3d3d 6c0f 5d3d 72dd 89bd e4b9 8939
00000050: a90c 2ebc 9b3d d33d 6248 b1bd 3b7c aebc
00000060: 5a7b 19bd 00a6 99b8 70e9 4b3d 102a 38bb
00000070: c88f 313d ebc9 f0bc be4c 88bd 3cc7 6dbb
00000080: 38bc 79bd af1d f73c 1896 04bd 54fc 97bc
00000090: ca38 87bd 2120 c1bc 4d73 a53c d8d4 bcbc
000000a0: 36d7 cc3c 02e1 e83c 56ff 8abd 170f 5a3d
000000b0: 97b1 bc3c 4852 2fbd 47e6 e1bc 7a6f 453d
000000c0: d4e9 ad3c 2c59 3c3d 2e68 4fbd 59c2 2e3d
000000d0: c9d1 6fbd 06a8 cbbc a73e a3bd abb9 b4bc
000000e0: 30d0 a53d 4700 33bd 3337 52bd 1e2e 423c
000000f0: 088c 08bd 7471 08bc 852b 663d 73fc 82bb
00000100: 74ca 50bb a768 11bd b5e4 c13c 1fd2 153d
00000110: aa1f b13c e1ab 38bd 906d 79bd 69af aabc
00000120: 53da b83d dc7c 883d 3dbe b6b9 9289 a43b
00000130: 569c 52bc 8444 1bbd f3d0 6ebd b941 a0bc
00000140: ea34 9fbc d4f0 54bd 93d7 983d df29 053c
00000150: 113c 09bd 0bb2 94bd 2e24 35ba 14b3 11bd
00000160: ceaa dabc 58f8 7dbc 96b9 b9bd 5f66 3fbc
00000170: c224 1bbd fe84 0dbd cd77 d8bc c3a1 fa3c
00000180: 54f7 1b3c 3378 42bd 2eec 3abc c445 eabc
00000190: 4f86 48bc 6951 32bd a31b b8bc 5eca fdbb
000001a0: 899b 043d 6bb5 a43b 55d2 823d 9f38 a9bb
000001b0: e6e7 ddbc 6f1b 3bbd 9317 fd3c d32f 5b3d
000001c0: 7677 703d bec3 573d 672d 9a3d 048d eabd
000001d0: 0530 4d3d dfbf 4b3d ec29 59bc 4d14 11bd
000001e0: 8aef ddbb 3d44 8abd 1762 5cbd f58a 1c3d
000001f0: 767f 013d a036 c9bc 9bb5 8d3d 84e6 ccbd

conv2.lin.weight f4 [128, 128]
0.008437275 -0.0046799886 -0.0035841565 -0.0035934034 -0.00498683 -0.0070612365 -0.03549453 0.0009747194
-0.009611088 -0.0010049462 -0.021163816 -0.00024562347 0.0015283439 -0.0014355588 -0.00064667896 -0.0030201941
0.0027577719 -0.00187869 -0.0014753079 -0.0029944947 0.00465797 0.0016224761 -0.0016894317 -0.0009183069
0.004153938 -0.0035669846 0.001654951 0.0016482379 0.00064313464 -0.0023777515 -0.038021874 0.00079243863
-0.002035135 -0.00554126 0.0018893289 -0.0054356875 -0.0028307503 0.010677115 6.9457805e-05 0.0052832933
-0.005548737 -0.0022306284 0.00017131082 -0.0003264479 0.0003737062 -0.004282411 -0.0010223973 -0.0004939827
0.0035601037 0.008877771 -0.00090091745 0.0070696874 0.0033150099 0.0027732865 -0.0036300016 -0.0036889366
-0.042163845 -0.0022850079 0.0018074056 -0.047040906 0.00010879169 -0.0071822014 0.00032870134 0.00043583655
0.004658224 -0.004625991 -0.0019014145 -0.006887801 0.0132949 0.0032192299 0.0014501811 -0.0018816316
-0.0017863847 0.0007318193 0.005738397 -2.2164895e-05 -0.000824534 -0.0028319159 0.0014714991 -0.005687955
0.002472697 0.0016150537 0.0065209647 0.0033214884 -0.0040547475 0.005328693 0.0052061104 -0.0038662015
0.005189 -0.030081168 -0.04406821 -0.01156983 0.011083498 0.0008541493 -0.00014095334 0.005225495
-0.08491221 0.0010909243 0.00011166753 0.0075108684 -0.033295892 0.0012901245 -0.0025571438 -0.0062432867
0.00666798 -0.00017017906 0.002336403 0.00065517524 -0.011516781 -0.010466334 0.022103516 0.006455948
-0.00064812053 0.006437041 0.0057999725 -0.0029954084 0.0003141164 0.010475883 0.0054317107 -0.018304585
-0.00162255 -2.5621528e-05 -0.00069554785 -0.0020913233 -0.06174203 0.0049247765 -0.011095226 -0.007862323
-0.09478623 0.009356367 0.064968675 0.007943725 -0.102082096 -0.052179195 -0.048697885 0.03408589
0.04492148 -0.07317309 -0.0096352585 0.09231024 0.045677103 0.029188087 -0.19735958 -0.2043618
-0.047477327 0.04541986 0.15993875 0.095672525 -0.08465938 0.17645487 0.07393958 0.073867396
0.028389467 0.029631091 0.008626918 -0.06200175 -0.17103192 -0.20471704 -0.008804854 -0.014094965
-0.07053444 -0.038423747 -0.19790687 -0.12845871 -0.13342638 0.075447276 0.05244072 -0.15433866
0.10731606 -0.044127375 0.13664031 0.009702139 -0.038060322 -0.12328139 -0.008984853 -0.17606139
-0.08284217 -0.0784663 -0.16692792 -0.010958731 -0.10021866 0.11406032 0.144535 0.0011907965
-0.03474992 -0.10266492 -0.1714956 -0.1098338 -0.11660874 -0.06442248 -0.0068462966 -0.07728312
-0.10606245 0.0012064751 0.0007625298 0.039898194 0.054955572 -0.22903721 0.073721 -0.0035942425
-0.08400368 0.0015160071 -0.026093548 0.07702341 -0.21456972 0.11180583 -0.086871095 0.055403646
0.1053268 -0.1761953 0.057600528 -0.10927995 -0.08854818 -0.09223931 0.04772601 0.030019308
-0.013453534 -0.014908202 -0.07229357 -0.09573955 0.055173837 0.025082244 -0.15240279 -0.115492925
-0.14598933 -0.15488611 -0.20218964 -0.06554258 -0.024136795 0.048097912 0.09352054 0.030222803
-0.028175281 -0.1077572 -0.043884777 -0.16156615 -0.0070748287 -0.109648705 0.057840157 -0.07734923
-0.15424246 0.07974263 0.1031533 -0.019224025 0.0048788153 -0.06483091 -0.010756597 -0.07688089
0.12913169 0.01663343 0.0038013381 0.12516953 -0.10537867 0.080238335 -0.08597205 0.04716043
00000000: 7f3c 0a3c 975a 99bb 2be4 6abb 4e7f 6bbb
00000010: 9068 a3bb f261 e7bb b662 11bd 5084 7f3a
00000020: d377 1dbc 66b8 83ba bd5f adbc 06c7 80b9
00000030: b652 c83a 5c29 bcba e485 29ba 73ee 45bb
00000040: bcbb 343b 603e f6ba 1e5f c1ba 493f 44bb
00000050: e2a1 983b 44a9 d43a ec6f ddba 88ba 70ba
00000060: c21d 883b 12c4 69bb f1ea d83a b009 d83a
00000070: 0998 283a 0dd4 1bbb d3bc 1bbd a8bb 4f3a
00000080: e65f 05bb 7593 b5bb 5ca3 f73a da1d b2bb
00000090: 1c84 39bb 11ef 2e3c e0a9 9138 7a1f ad3b
000000a0: 2ed2 b5bb bc2f 12bb e6a1 3339 1827 abb9
000000b0: ffed c339 7853 8cbb f601 86ba 9e7e 01ba
000000c0: a150 693b 1274 113c 8c2b 6cba d6a8 e73b
000000d0: a340 593b 07c0 353b 52e5 6dbb 16c2 71bb
000000e0: ffb3 2cbd 12c0 15bb 78e6 ec3a f7ad 40bd
000000f0: 1827 e438 ac58 ebbb 8c55 ac39 fe80 e439
00000100: 04a4 983b a095 97bb e238 f9ba 10b3 e1bb
00000110: dad2 593c b7f9 523b 0114 be3a 14a1 f6ba
00000120: 2025 eaba 90d7 3f3a 2a09 bc3b c0ee b9b7
00000130: 8a25 58ba aa97 39bb 51df c03a 0662 babb
00000140: f90c 223b 36b0 d33a d1ad d53b 54ad 593b
00000150: b0dd 84bb 519c ae3b 0598 aa3b 1960 7dbb
00000160: 7d08 aa3b c86c f6bc de80 34bd 628f 3dbc
00000170: 8f97 353c fde8 5f3a e0cc 13b9 a13a ab3b
00000180: 74e6 adbd 58fd 8e3a 0c2f ea38 bb1d f63b
00000190: 4661 08bd 6519 a93a c195 27bb 7c94 ccbb
000001a0: 127f da3b 1872 32b9 561e 193b 11c0 2b3a
000001b0: e1b0 3cbc fd7a 2bbc 6f12 b53c 6b8c d33b
000001c0: a2e6 29ba d0ed d23b b20d be3b 9d4e 44bb
000001d0: fdaf a439 0aa3 2b3c 7efc b13b 7ff3 95bc
000001e0: beab d4ba d0ed d6b7 6d55 36ba 950e 09bb
000001f0: 36e5 7cbd 0560 a13b c0c8 35bc f9d0 00bc
00000200: 481f c2bd 734b 193c 4c0e 853d 6626 023c
00000210: 6b10 d1bd dab9 55bd 6f77 47bd a59d 0b3d
00000220: 96ff 373d c6db 95bd 34dd 1dbc 270d bd3d
00000230: ea17 3b3d db1b ef3c a118 4abe 3844 51be
00000240: 9677 42bd 2d0a 3a3d fcc6 233e f5ef c33d
00000250: e661 adbd 96b0 343e a26d 973d ca47 973d
00000260: 0791 e83c e7bc f23c eb57 0d3c 8cf5 7dbd
00000270: fe22 2fbe 58a1 51be 3c42 10bc 91ee 66bc
00000280: 5c74 90bd 3862 1dbd 19a8 4abe ae8a 03be
00000290: eda0 08be 1a84 9a3d 15cc 563d f40a 1ebe
000002a0: 86c8 db3d e8be 34bd 70eb 0b3e b8f5 1e3c
000002b0: 24e5 1bbd f47a fcbd 3435 13bc 7049 34be
000002c0: 28a9 a9bd f1b2 a0bd 27ef 2abe 408c 33bc
000002d0: 713f cdbd 7598 e93d fc00 143e 8014 9c3a
000002e0: ef55 0ebd fc41 d2bd 8b9c 2fbe 8bf0 e0bd
000002f0: 90d0 eebd efef 83bd e656 e0bb 9d46 9ebd
00000300: 4537 d9bd 9622 9e3a 82e4 473a 4a6c 233d
00000310: 1819 613d bb88 6abe 09fb 963d 628d 6bbb
00000320: 1f0a acbd c2b4 c63a 23c2 d5bc 73be 9d3d
00000330: 2ab8 5bbe 74fa e43d 79e9 b1bd efee 623d
00000340: 94b5 d73d 8a6c 34be 88ee 6b3d 2bce dfbd
00000350: c058 b5bd f7e7 bcbd 597c 433d 0deb f53c
00000360: 366c 5cbc 8841 74bc a70e 94bd 1913 c4bd
00000370: f6fd 613d 4779 cd3c 7a0f 1cbe 8e87 ecbd
00000380: 3a7e 15be 779a 1ebe cd0a 4fbe 303b 86bd
00000390: 87ba c5bc 5102 453d b287 bf3d d095 f73c
000003a0: d9cf e6bc cfaf dcbd 86c0 33bd 9971 25be
000003b0: f7d3 e7bb 808f e0bd cde9 6c3d 4669 9ebd
000003c0: bcf1 1dbe 1b50 a33d 0a42 d33d b47b 9dbc
000003d0: 78de 9f3b 11c6 84bd 703c 30bc ba73 9dbd
000003e0: 193b 043e d542 883c df1f 793b 712c 003e
000003f0: c6d0 d7bd ff53 a43d 1d12 b0bd 4c2b 413d

edge_classifier.0.weight f4 [128, 258]
-0.015322949 -0.0063790088 0.08729265 -0.055499494 -0.012529674 0.00042033294 -0.039453544 0.009070232
0.024108965 0.17030475 0.036289576 0.078460455 0.059684966 0.02596111 -0.04295564 0.033531863
0.07408997 0.029794475 0.0073871776 -0.020583628 -0.069940336 0.11818673 0.024506226 -0.06492723
0.020710694 -0.09866831 0.10853513 -0.06901194 0.05183437 0.02681949 -0.08413564 0.09434921
-0.023779573 0.018698739 -0.016883394 -0.05731002 0.056690723 0.03140851 0.01693372 -0.04466526
0.01410417 0.18792915 -0.0077981194 0.1372762 -0.032623015 0.0004834696 -0.0070163067 0.006650824
0.08402064 0.06958715 0.0752555 0.09443351 0.0959591 0.020067308 0.00168098 -0.021685863
0.11632395 -0.010802366 0.024582919 0.09116361 -0.12050885 -0.005600137 0.13269815 -0.15929425
-0.028425168 -0.013274412 -0.09301004 0.10739478 -0.0013558985 -0.022764785 -0.011814781 -0.015705751
0.036866374 0.027777325 -0.10595295 -0.07182001 0.11312748 0.0063150516 0.020520024 0.03478913
-0.1170459 0.0106175365 0.017923038 -0.07310296 0.0017739576 0.041754782 -0.043645993 -0.0014383857
-0.014455876 -0.03480026 0.0069126557 0.0804439 -0.020935766 -0.020297943 0.044923447 0.07887993
-0.05869297 -0.004266306 -0.111178905 -0.10730522 0.00093808095 -0.04254295 -0.09636526 0.043028176
-0.058116782 -0.06309314 0.10391165 0.0056076692 -0.089088075 0.02147627 -0.07040457 0.08966307
0.07724795 0.10605827 0.09118797 -0.027092367 0.01959249 -0.1874131 -0.043448392 0.0006087061
-0.03798909 0.024900472 -0.005525827 0.116992176 -0.10964357 0.00025921332 0.008412604 -0.021073082
-0.0010513633 0.09876429 0.040539086 -0.017671015 -0.049665548 0.0068541393 -0.02020238 0.061155327
0.018120896 0.022614729 0.013351971 0.04456135 0.042976394 0.039475728 0.052486833 0.0053861937
0.052702855 0.035101414 0.05504824 0.0035050814 0.050750617 -0.036998384 0.054325894 0.033866916
0.04932415 -0.0109074805 0.0676993 0.059427295 0.015822504 -0.07386202 0.007989666 0.053401794
-0.015590323 0.051081035 0.052895382 0.026766913 -0.036513664 -0.005335186 0.017843928 -0.007959041
0.026092643 0.03415416 0.02285218 -0.010853089 0.08653227 0.0010880617 0.003166954 0.08173323
0.037880152 0.052941266 -1.0079704e-05 0.0665917 -0.029923527 -0.05820368 0.03524264 -0.04925891
-0.038901623 0.028551664 0.08444273 -0.015150645 -0.027051298 0.016943699 -0.028517151 0.05585173
0.006081187 -0.0024482654 -0.0052113305 0.014454832 0.007883805 0.029845089 0.0059308284 -0.0016730998
0.037653923 0.06738781 0.022831062 0.052267995 0.036479764 0.0011593828 0.072383955 -0.041154508
0.07326458 0.016733574 0.08274977 0.06743825 0.016729003 0.035374388 0.007519137 -0.00022544357
-0.032094363 0.05996381 0.0004475925 0.028090632 0.046119425 -0.015627718 -0.02474158 -0.014406996
0.01058042 -0.0036010754 0.008538522 0.10158688 -0.0025767477 -0.00038814175 0.019987226 -0.00634807
0.037487153 -0.005185974 0.078553975 0.0027119117 0.004276974 0.05581525 0.060055412 0.029178413
0.08121201 0.02416083 -0.01297313 0.003961918 0.03020392 -0.043134782 0.035334297 -0.0010926384
-0.020407949 0.0015696227 0.007385863 0.07544232 0.008876709 0.00094808114 0.015880052 0.03619727
00000000: 1b0d 7bbc 0107 d1bb 7dc6 b23d 7053 63bd
00000010: 4349 4dbc 2260 dc39 0a9a 21bd 4f9b 143c
00000020: 2a80 c53c 5e64 2e3e 61a4 143d e0af a03d
00000030: 3978 743d 65ac d43c 41f2 2fbd b558 093d
00000040: 7bbc 973d 8b13 f43c 2310 f23b ff9e a8bc
00000050: e13c 8fbd e20b f23d 48c1 c83c 91f8 84bd
00000060: 79a9 a93c 9c12 cabd ab47 de3d 2256 8dbd
00000070: 4750 543d 8cb4 db3c 4e4f acbd 293a c13d
00000080: 61cd c2bc 192e 993c 0b4f 8abc e9bd 6abd
00000090: 8834 683d 36a6 003d 96b8 8a3c ebf2 36bd
000000a0: 2d15 673c 8070 403e 5e87 ffbb 2292 0c3e
000000b0: b69f 05bd 317a fd39 0ce9 e5bb 28ef d93b
000000c0: 0313 ac3d b583 8e3d 8e1f 9a3d 5b66 c13d
000000d0: 3486 c43d 3264 a43c 5454 dc3a 8da6 b1bc
000000e0: 403b ee3d 68fc 30bc 1e62 c93c fdb3 ba3d
000000f0: 58cd f6bd 5b81 b7bb 06e2 073e 081e 23be
00000100: e6db e8bc eb7c 59bc 0c7c bebd cbf1 db3d
00000110: 67b8 b1ba 377d babc c992 41bc 59a9 80bc
00000120: 3201 173d 468d e33c dcfd d8bd 5f16 93bd
00000130: 61af e73d 7eee ce3b 9c19 a83c 0c7f 0e3d
00000140: c3b5 efbd 2df5 2d3c 56d3 923c 01b7 95bd
00000150: 2484 e83a 1007 2b3d 24c6 32bd 3788 bcba
00000160: 57d8 6cbc b88a 0ebd 8f83 e23b c5bf a43d
00000170: 7c81 abbc df47 a6bc a601 383d cd8b a13d
00000180: 0a68 70bd 5ecc 8bbb c4b1 e3bd d7c2 dbbd
00000190: 8ce9 753a 8441 2ebd 265b c5bd 503e 303d
000001a0: dd0b 6ebd fa36 81bd a2cf d43d 8ac0 b73b
000001b0: cf73 b6bd 01ef af3c 4530 90bd 46a1 b73d
000001c0: 2c34 9e3d 1435 d93d c2c0 ba3d d0f0 ddbc
000001d0: 6e80 a03c 38e9 3fbe f1f6 31bd 9391 1f3a
000001e0: 739a 1bbd 13fc cb3c ff11 b5bb 9899 ef3d
000001f0: cf8c e0bd 06e7 8739 05d5 093c 75a1 acbc
00000200: e6cd 89ba ef44 ca3d 500c 263d cec2 90bc
00000210: 1a6e 4bbd b098 e03b 767f a5bc 027e 7a3d
00000220: 4672 943c 8642 b93c 3ac2 5a3c f685 363d
00000230: 0408 303d 4db1 213d 6ffc 563d ab7e b03b
00000240: f3de 573d 80c6 0f3d 437a 613d 82b5 653b
00000250: e1df 4f3d 9e8b 17bd d484 5e3d 09b8 0a3d
00000260: 1f08 4a3d 4ab5 32bc eea5 8a3d 096a 733d
00000270: 329e 813c f944 97bd 17e7 023c d7bb 5a3d
00000280: 8e6e 7fbc 593a 513d d4a8 583d 4946 db3c
00000290: 5a8f 15bd c9d2 aebb 6e2d 923c a366 02bc
000002a0: 3dc0 d53c 3ce5 0b3d 7f34 bb3c 28d1 31bc
000002b0: d537 b13d 4b9d 8e3a ac8c 4f3b c063 a73d
000002c0: 3828 1b3d f1d8 583d 001c 29b7 3b61 883d
000002d0: 2f22 f5bc fb66 6ebd 965a 103d b6c3 49bd
000002e0: 4f57 1fbd 2ee5 e93c 4ff0 ac3d 693a 78bc
000002f0: af9a ddbc 83cd 8a3c cd9c e9bc c9c4 643d
00000300: b244 c73b 1473 20bb cfc3 aabb f6d3 6c3c
00000310: 132b 013c b07d f43c 6557 c23b ea4b dbba
00000320: 003b 1a3d 9f02 8a3d 3508 bb3c f716 563d
00000330: ce6b 153d 6ef6 973a 0a3e 943d a191 28bd
00000340: bd0b 963d d914 893c b678 a93d 111d 8a3d
00000350: 430b 893c bce4 103d 1863 f63b 0c65 6cb9
00000360: 6175 03bd 9d9c 753d d9aa ea39 531e e63c
00000370: b9e7 3c3d b305 80bc dbae cabc 520b 6cbc
00000380: 7f59 2d3c 0500 6cbb 28e5 0b3c c80c d03d
00000390: a7de 28bb 817f cbb9 40bc a33c 7903 d0bb
000003a0: 218c 193d 1aef a9bb e8e0 a03d 54ba 313b
000003b0: dc25 8c3b 889e 643d aafc 753d 9107 ef3c
000003c0: 7b52 a63d efec c53c 408d 54bc fad2 813b
000003d0: 366e f73c 19ae 30bd b2ba 103d dc36 8fba
000003e0: 922e a7bc ccbb cd3a 1c05 f23b 8181 9a3d
000003f0: 9e6f 113c a688 783a e216 823c 9743 143d

edge_classifier.0.bias f4 [128]
0.01636153 0.022897651 0.006682526 0.03186124 0.0070085768 0.02112271 -0.030133879 -0.029988313
-0.011235754 0.019676644 0.07239753 0.08139875 -0.005448062 -0.020662198 -0.002267469 -0.026991492
0.02725632 -0.08954441 -0.027183551 -0.004258935 -0.09187143 -0.07581273 -0.10547058 0.096381344
-0.012934931 -0.003680355 -0.08068474 -0.10502543 -0.03403697 -0.05003817 -0.081057236 -0.0471354
0.029464936 0.07043423 0.034707665 -0.031597942 0.0024465409 0.024447395 0.029751357 0.00014502677
0.07397196 0.011029442 -0.0035694148 0.0633003 0.06601745 -0.021997292 -0.015708879 0.06758694
-0.09084368 -0.060779642 0.04612652 -0.0010735043 -0.07212837 0.055342775 0.041774172 -0.06850668
-0.09890071 -0.094255894 0.041517492 0.04327965 0.043160047 -0.029235955 -0.059962045 0.0825797
-0.040077195 0.0499781 0.0003972847 -0.015762016 -0.043722034 0.019788895 0.008898496 0.10032787
0.015444765 -0.025074767 0.060228236 0.081594154 0.061588123 -0.024174001 0.11296609 -0.025483046
0.036361247 0.023200009 0.08332734 0.04159755 -0.038252156 -0.08656766 -0.032030568 0.03539272
-0.07673001 0.113829695 0.033477657 -0.07387785 -0.051888462 0.032907423 0.07623447 0.0019315993
0.082642324 -0.019244801 -0.037062466 -0.050531916 -0.00064881635 0.06933914 0.034440722 -0.060869
0.07070656 0.03769474 -0.026022855 -0.012271338 -0.0052346266 -0.010747108 0.063149706 0.026996877
0.028436353 -0.0949265 -0.053409237 -0.058811657 0.0012317165 -0.05142453 -0.0053744577 0.01566824
-0.00083817646 -0.08313326 -0.064379945 -0.034179296 -0.016011257 -0.03715008 0.038501732 0.13054615
00000000: 9e08 863c db93 bb3c 17f9 da3b ee80 023d
00000010: 34a8 e53b 8909 ad3c 53db f6bc 0daa f5bc
00000020: 2b16 38bc ea30 a13c 2845 943d 63b4 a63d
00000030: a885 b2bb c543 a9bc d199 14bb 431d ddbc
00000040: a548 df3c 0f63 b7bd 0ab0 debc 898e 8bbb
00000050: 1727 bcbd b443 9bbd f600 d8bd 9563 c53d
00000060: 08ed 53bc 1c32 71bb 0a3e a5bd 9317 d7bd
00000070: 5a6a 0bbd d3f4 4cbd 5601 a6bd 0d11 41bd
00000080: 7360 f13c d23f 903d a029 0e3d d86c 01bd
00000090: 2556 203b e745 c83c 1eb9 f33c 5412 1839
000000a0: 9c7e 973d d5b4 343c d8ec 69bb 96a3 813d
000000b0: 2834 873d aa33 b4bc e8af 80bc 066b 8a3d
000000c0: 400c babd 13f4 78bd 29ef 3c3d d4b4 8cba
000000d0: 0ab8 93bd 1baf 623d 651b 2b3d 3b4d 8cbd
000000e0: 758c cabd 3c09 c1bd 3f0e 2a3d 0146 313d
000000f0: 97c8 303d 3e80 efbc c39a 75bd 8c1f a93d
00000100: fc27 24bd d6b5 4c3d a64a d039 581f 81bc
00000110: e015 33bd 521c a23c ffca 113c b378 cd3d
00000120: 0a0c 7d3c 9969 cdbc e2b1 763d d61a a73d
00000130: d443 7c3d 8e08 c6bc c45a e73d d2c1 d0bc
00000140: 88ef 143d f20d be3c 86a7 aa3d 3162 2a3d
00000150: 4bae 1cbd 634a b1bd 7c32 03bd f5f7 103d
00000160: a024 9dbd 8b1f e93d de1f 093d 454d 97bd
00000170: ff88 54bd efc9 063d d120 9c3d b82d fd3a
00000180: 6140 a93d 46a7 9dbc d0ce 17bd 8efa 4ebd
00000190: 5415 2aba ae01 8e3d b711 0d3d c651 79bd
000001a0: 9ace 903d cd65 1a3d e22d d5bc b90d 49bc
000001b0: 3b87 abbb a314 30bc a254 813d 8e28 dd3c
000001c0: 5bf3 e83c d368 c2bd a5c3 5abd 7ee4 70bd
000001d0: 8c71 a13a 87a2 52bd 381c b0bb ae5a 803c
000001e0: 12b9 5bba c541 aabd a2d9 83bd 97ff 0bbd
000001f0: 0a2a 83bc af2a 18bd feb3 1d3d e4ad 053e

edge_classifier.3.weight f4 [32, 128]
-0.046129066 -0.06223225 -0.033479847 -0.052985314 0.006059543 0.0005341355 0.00096977095 0.02216698
-0.0026565124 0.041696478 -0.03860894 -0.030060705 -0.002281711 0.014669921 -0.023411315 -0.038305998
-0.017143218 0.05281238 -0.0013921021 0.0015743456 -0.0004111564 0.0070628165 0.0034778754 -0.041496757
0.00013299688 0.00075137924 0.001192954 -0.025391432 0.0011509514 -0.0016953215 0.005396559 -0.016215594
-0.033751328 -0.010365863 -0.022703564 -0.028430993 -0.012905626 -0.024967665 -0.036101773 -0.00396329
-0.06870821 -0.032929033 0.024967188 -0.0736775 -0.040576942 -0.02725686 -0.013376492 -0.033142634
0.006223243 0.002424122 -0.03395469 -0.063827924 -0.0030642 -0.044923726 -0.02609631 0.0011763638
-0.0016885068 0.00091901404 -0.071709156 -0.04551633 -0.041412625 0.0010942126 -0.01710327 -0.09006339
-0.0004421828 -0.048024517 0.022491151 -0.0011021573 0.007878501 0.015046057 0.05133962 0.0010615903
-0.047475427 -0.0002072354 -0.044735182 -0.010390959 -0.04773687 0.00033843753 -0.05451938 -0.03738617
-0.058101837 -0.0014884333 -0.026575033 -0.040097587 0.03144949 -0.00077375537 -0.0014284307 -0.023673868
0.0038184482 -0.019843565 -0.032160748 -0.00042848976 -0.0023435254 -0.0035250578 -0.055097166 -0.021804871
-0.04845396 0.0054417755 0.0001857449 -0.0009324818 -0.03209528 -0.016592335 -0.043622766 -0.00089007925
-0.046166155 -0.026496138 0.0015115675 0.0007740719 -0.053978637 0.00086304906 -0.05378871 -0.024378287
-0.04510796 -0.0017373613 0.0023028406 0.002416564 -0.054573316 -0.007221936 -0.058563467 -0.013350543
0.0016409496 0.0003560188 -0.0015159085 -0.031263813 -0.03124523 -0.0025550711 -0.043752506 -0.026986947
0.03476086 0.07751688 0.018538214 -0.024518343 0.13312204 0.031523824 0.002028569 0.14751926
-0.019810334 0.15323615 -0.036952645 0.05826755 0.055807497 0.103218675 0.0324112 -0.019579217
0.17435591 0.0426786 -0.0015670368 -0.0030819406 0.00511366 0.14960244 0.0042228494 -0.033008978
0.001261628 -0.0019080769 0.035851527 0.07627332 0.08968336 -0.0034078106 0.019699331 0.049773064
-0.03772747 0.07673893 0.013984352 0.09884131 -0.059885614 -0.036522966 0.082098044 0.010406535
-0.06119436 -0.089089826 0.046489857 -0.07643909 0.039559435 0.04793267 0.068106666 -0.06672359
-0.0041100546 0.007828013 0.005524241 0.022084834 0.04876441 -0.033163834 0.015755646 -0.0013903371
-0.07511569 0.050299145 0.059634566 0.007732709 0.035063155 0.0054951655 0.121888585 0.041043412
-0.00039952341 -0.077490605 0.0706175 0.08115164 0.046155807 0.06554994 0.03903073 0.050338008
0.05266504 -0.0019760209 0.057889335 0.035136186 0.08990764 0.027388167 0.06767895 0.1469403
-0.09976507 0.06375151 -0.0020390258 -0.01954586 0.0395555 -0.013005447 -0.005321568 0.021449368
0.0037706802 0.04348091 0.011315348 -0.008702263 -0.0018835689 0.07395579 -0.02282251 0.0041373437
-0.036655832 0.03289952 -0.032146733 -0.0128482 0.07591095 0.05777322 -0.048359618 -0.0024232366
0.1662727 0.059603505 0.0030379477 0.041498102 0.09465271 -0.09157442 -0.07056767 0.07051591
0.02674345 0.001670509 0.138668 0.0013101295 0.12750456 0.046962406 0.062450342 0.04747106
0.0013177197 -0.0145914005 0.012041801 0.07956463 0.0049853846 0.03800173 -0.070327014 0.09454013
00000000: d5f1 3cbd 3ee7 7ebd 2a22 09bd 2107 59bd
00000010: 228f c63b 3a05 0c3a 3a38 7e3a 8797 b53c
00000020: e218 2ebb edc9 2a3d 6824 1ebd de41 f6bc
00000030: c288 15bb 1c5a 703c 16c9 bfbc c0e6 1cbd
00000040: ef6f 8cbc cb51 583d 3277 b6ba 465a ce3a
00000050: 7a90 d7b9 336f e73b 11ed 633b 81f8 29bd
00000060: 1475 0b39 35f8 443a e55c 9c3a b101 d0bc
00000070: 85db 963a 8d35 deba 9ed5 b03b 91d6 84bc
00000080: d53e 0abd 95d5 29bc d3fc b9bc 1de8 e8bc
00000090: 1e72 53bc fd88 ccbc 74df 13bd 7cde 81bb
000000a0: e4b6 8cbd 98e0 06bd fd87 cc3c 3be4 96bd
000000b0: 0234 26bd c749 dfbc 1329 5bbc 92c0 07bd
000000c0: 59ec cb3b 05de 1e3b 1314 0bbd 37b8 82bd
000000d0: bfd0 48bb f101 38bd eec7 d5bc 3830 9a3a
000000e0: e350 ddba fde9 703a 40dc 92bd 556f 3abd
000000f0: 49a0 29bd af6b 8f3a 281c 8cbc 2873 b8bd
00000100: c5d4 e7b9 5bb5 44bd 5d3f b83c 4376 90ba
00000110: d414 013c bd83 763c 7e49 523d 0f25 8b3a
00000120: 9875 42bd 544d 59b9 3d3c 37bd d73e 2abc
00000130: bc87 43bd 5170 b139 b74f 5fbd 3e22 19bd
00000140: 31fc 6dbd 8917 c3ba e2b3 d9bc 5e3d 24bd
00000150: 2ed1 003d d8d5 4aba 2e3a bbba b3ef c1bc
00000160: ee3e 7a3b f98e a2bc fdba 03bd eca6 e0b9
00000170: d595 19bb a804 67bb 91ad 61bd 21a0 b2bc
00000180: a977 46bd ec50 b23b 84c4 4239 cb71 74ba
00000190: 5776 03bd a6ec 87bc c9ad 32bd 3554 69ba
000001a0: b918 3dbd 6e0e d9bc ca1f c63a 16eb 4a3a
000001b0: b418 5dbd 3e3e 623a 8d51 5cbd f9b4 c7bc
000001c0: 20c3 38bd 2cb8 e3ba 41eb 163b 375f 1e3b
000001d0: 4588 5fbd fda5 ecbb 3fe0 6fbd 3cbc 5abc
000001e0: 2215 d73a 09a8 ba39 73b1 c6ba 7c0e 00bd
000001f0: fff5 ffbc fb72 27bb d435 33bd bb13 ddbc
00000200: 6761 0e3d 2cc1 9e3d 74dd 973c b1da c8bc
00000210: 2551 083e 201f 013d bef1 043b 4a0f 173e
00000220: 4849 a2bc f0e9 1c3e a85b 17bd f4a9 6e3d
00000230: 6796 643d 5064 d33d 9bc1 043d 9864 a0bc
00000240: 5b8a 323e c1cf 2e3d 0865 cdba 62fa 49bb
00000250: 7d90 a73b 6231 193e d45f 8a3b 6c34 07bd
00000260: 365d a53a 7018 faba 0dd9 123d 3035 9c3d
00000270: e9ab b73d 9355 5fbb 7e60 a13c d7de 4b3d
00000280: 1f88 1abd 4d29 9d3d a01e 653c 506d ca3d
00000290: 9e4a 75bd 1b99 15bd 0523 a83d 2c80 2a3c
000002a0: f0a6 7abd ba74 b6bd 266c 3e3d 198c 9cbd
000002b0: 1309 223d 0c55 443d 827b 8b3d 61a6 88bd
000002c0: a3ad 86bb 1141 003c b104 b53b 41eb b43c
000002d0: 31bd 473d cdd6 07bd fc11 813c f93b b6ba
000002e0: 41d6 99bd 7a06 4e3d 6043 743d aa62 fd3b
000002f0: 629e 0f3d ca10 b43b b9a0 f93d 231d 283d
00000300: 2077 d1b9 65b3 9ebd e89f 903d d532 a63d
00000310: df0d 3d3d 0c3f 863d b0de 1f3d 3a2f 4e3d
00000320: 4cb7 573d 2180 01bb 5e1d 6d3d f6ea 0f3d
00000330: 7f21 b83d 265d e03c 439b 8a3d 8577 163e
00000340: a151 ccbd 2790 823d 2da1 05bb a41e a0bc
00000350: f304 223d cc14 55bc 8c60 aebb 96b6 af3c
00000360: 841d 773b 0a19 323d 0264 393c f093 0ebc
00000370: 16e2 f6ba 2276 973d 46f6 babc 8e92 873b
00000380: 6d24 16bd a6c1 063d 4bac 03bd 4281 52bc
00000390: 3377 9b3d 9da3 6c3d bc14 46bd 2acf 1ebb
000003a0: 6443 2a3e ce22 743d 4e18 473b eaf9 293d
000003b0: 48d9 c13d 5f8b bbbd c885 90bd a56a 903d
000003c0: 1415 db3c fbf4 da3a fcfe 0d3e a7b8 ab3a
000003d0: 8e90 023e a75b 403d eecb 7f3d 0471 423d
000003e0: 56b7 ac3a c510 6fbc f94a 453c c8f2 a23d
000003f0: 705c a33b b4a7 1b3d 9c07 90bd 419e c13d

edge_classifier.3.bias f4 [32]
-0.103352055 0.018607896 -0.008489224 0.010833575 -0.016862478 0.028356565 0.13862461 0.15227975
-0.041538004 -0.082025796 0.1711898 0.012717402 0.039949976 -0.037325047 -0.03783497 0.027842639
0.095493056 0.047388945 -0.10668742 0.0754963 -0.12153406 0.051344614 -0.1401293 0.093120106
0.06234383 0.06323152 0.01710452 0.077988066 -0.14807095 0.075704776 -0.065356374 0.017581318
00000000: 3eaa d3bd 966f 983c 6316 0bbc 4f7f 313c
00000010: 2e23 8abc 074c e83c 9cf3 0d3e 39ef 1b3e
00000020: c123 2abd 24fd a7bd 614c 2f3e a65c 503c
00000030: 96a2 233d 26e2 18bd d7f8 1abd 3f16 e43c
00000040: dd91 c33d e91a 423d ef7e dabd ce9d 9a3d
00000050: d9e6 f8bd bb4e 523d 0e7e 0fbe c1b5 be3d
00000060: 3e5c 7f3d 877f 813d c71e 8c3c 35b8 9f3d
00000070: e99f 17be 1b0b 9b3d 90d9 85bd b206 903c

edge_classifier.5.weight f4 [1, 32]
-0.04516885 0.08203797 0.13805328 -0.1794827 0.03827474 -0.0824017 -0.1584197 -0.1298373
-0.002860094 0.0014373249 -0.15839277 0.0838302 -0.20599954 -0.011527787 0.06885915 0.09368868
-0.15845422 -0.23507242 0.08457146 -0.22239919 -0.10476018 0.047800962 0.085120566 0.1252352
0.1264732 0.18899754 0.03692028 0.058234155 0.17519759 -0.22031944 -0.021542683 0.18000549
00000000: f902 39bd 8603 a83d d75d 0d3e 50ca 37be
00000010: f9c5 1c3d 39c2 a8bd c638 22be 12f4 04be
00000020: 6a70 3bbb 9f64 bc3a b731 22be 2baf ab3d
00000030: 8bf1 52be 0bdf 3cbc 0706 8d3d dadf bf3d
00000040: d341 22be d3b6 70be cd33 ad3d 9dbc 63be
00000050: 818c d6bd f1ca 433d b153 ae3d a83d 003e
00000060: 3182 013e 9288 413e b839 173d f086 6e3d
00000070: ff66 333e 6b9b 61be 487a b0bc 5c53 383e
