best_gnn_model_improved.pt (torch, 851683 bytes, 27 tensors)

conv1.bias f4 [128]
0	0x3638b25e	2.752196e-06
1	0xb880476f	-6.116821e-05
2	0xb8459de8	-4.711552e-05
3	0xb72f311e	-1.0442249e-05
4	0x3916a650	0.00014367071
5	0x37c05a56	2.293025e-05
6	0x398f8c56	0.00027379644
7	0x37a1715f	1.9245488e-05
8	0xb8f8184e	-0.000118300886
9	0xb54bcc18	-7.592039e-07
10	0x38457346	4.7075817e-05
11	0xb88c02c0	-6.6762324e-05
12	0xb790d35f	-1.7264565e-05
13	0x3878db96	5.9332313e-05
14	0x37a72af2	1.992795e-05
15	0x3891adf2	6.9465386e-05
16	0x37acc539	2.0595837e-05
17	0x37a0274c	1.9091785e-05
18	0xb78fa1dd	-1.7122302e-05
19	0x38028828	3.112122e-05
20	0xb808bfef	-3.260368e-05
21	0x368727a5	4.0279288e-06
22	0x37aa586b	2.0306752e-05
23	0x38ad1183	8.252545e-05
24	0x385b958c	5.2352945e-05
25	0xb7d2b702	-2.511917e-05
26	0x36e75d11	6.895171e-06
27	0xb6d8594b	-6.4476967e-06
28	0x3859b021	5.1900864e-05
29	0xb88e1d74	-6.776574e-05
30	0x390f2ff8	0.00013655412
31	0x36650d7c	3.4131508e-06
32	0x38f275fa	0.00011561434
33	0xb8088da1	-3.255683e-05
34	0xb88cb978	-6.7102665e-05
35	0xb8690297	-5.555394e-05
36	0x37cefad0	2.4673907e-05
37	0x36f42fec	7.2773455e-06
38	0x38a04e09	7.64393e-05
39	0x378e1120	1.6935694e-05
40	0x38c0be5e	9.190732e-05
41	0x384ab46c	4.8328584e-05
42	0x37b6a9c6	2.1775148e-05
43	0xb8976714	-7.219441e-05
44	0x38b1023c	8.440434e-05
45	0x37072555	8.055319e-06
46	0x378e3486	1.6952177e-05
47	0xb8753133	-5.8458372e-05
48	0xb8b2c8c9	-8.5251006e-05
49	0xb8602b27	-5.344595e-05
50	0xb7a57213	-1.9722653e-05
51	0x38d974cf	0.000103691236
52	0x3568cea0	8.6727414e-07
53	0xb773c6a8	-1.4530182e-05
54	0xb8dd63d4	-0.000105566956
55	0x3805fb95	3.1943975e-05
56	0xb8ac9e9c	-8.2311424e-05
57	0xb82b95e1	-4.0909163e-05
58	0xb7ed448e	-2.8284525e-05
59	0xb7fb45f6	-2.995411e-05
60	0x38da7df6	0.00010418512
61	0xb7c7b13f	-2.3805185e-05
62	0x3788e617	1.6319607e-05
63	0x36fbe9bc	7.507593e-06
64	0xb7a71458	-1.9917425e-05
65	0x378c5d8d	1.6732864e-05
66	0x388b2d1c	6.636439e-05
67	0x36cb103c	6.0517614e-06
68	0x37934897	1.7557568e-05
69	0x37d236e4	2.5059511e-05
70	0xb8128b45	-3.4938817e-05
71	0xb52e2660	-6.4875894e-07
72	0xb53a4f11	-6.9405456e-07
73	0x39e13904	0.00042957824
74	0x394b82f0	0.00019408367
75	0x38ac93e6	8.229147e-05
76	0xb702956b	-7.783393e-06
77	0x3899f337	7.340911e-05
78	0xb79622dc	-1.7897626e-05
79	0xb7650598	-1.3650766e-05
80	0xb86afeaa	-5.6027122e-05
81	0x37508d2b	1.2430634e-05
82	0xb8d8acf7	-0.000103319
83	0xb8b77684	-8.748195e-05
84	0xb8587080	-5.1603187e-05
85	0xb81692aa	-3.589938e-05
86	0x38b988c5	8.846963e-05
87	0xb88c97b0	-6.703974e-05
88	0x3786f4ce	1.608804e-05
89	0xb6d53928	-6.3545485e-06
90	0xb8a45c97	-7.8373756e-05
91	0x387cd9aa	6.0284197e-05
92	0xb95f3de3	-0.00021289992
93	0x385098ba	4.9733302e-05
94	0xb5c688fc	-1.4792017e-06
95	0xb8358557	-4.3277945e-05
96	0x38948b9c	7.083194e-05
97	0x37d96e98	2.5919915e-05
98	0xb736dc0e	-1.0899281e-05
99	0x37344fb4	1.0747393e-05
100	0x37b03249	2.100425e-05
101	0x37330424	1.06701955e-05
102	0x385f192a	5.319078e-05
103	0xb90665df	-0.00012817186
104	0x3801a61f	3.091071e-05
105	0xb59185c0	-1.0842268e-06
106	0x3886e927	6.433046e-05
107	0x3913b1e2	0.00014085279
108	0x38aa7bfd	8.129326e-05
109	0xb7f84d30	-2.9599847e-05
110	0xb8c2e90d	-9.29405e-05
111	0xb8846ac8	-6.31414e-05
112	0xb7260c3e	-9.897221e-06
113	0x3817f710	3.62313e-05
114	0x3711e434	8.695806e-06
115	0xb7f67452	-2.9379651e-05
116	0xb8a8556e	-8.026777e-05
117	0x3914b313	0.0001418109
118	0xb817d7e1	-3.620226e-05
119	0xb7f15e78	-2.877343e-05
120	0xb8c69dc1	-9.47076e-05
121	0xb8103564	-3.4382e-05
122	0x3880bb2c	6.138379e-05
123	0x38e54519	0.000109324414
124	0x37874258	1.6124148e-05
125	0x381e84fa	3.779398e-05
126	0x38199adc	3.6622267e-05
127	0x389d34b2	7.496159e-05

conv1.lin.weight f4 [128, 6]
0	0xbe53f494	-0.20698768
1	0x3d1d89c5	0.038461465
2	0xbd718924	-0.058968678
3	0xbe027af6	-0.12742218
4	0xbda2e4cb	-0.07953795
5	0x3dae4e3c	0.08511016
6	0xbe167f6c	-0.14697045
7	0xbe03fa71	-0.12888505
8	0x3ddadd55	0.10686747
9	0x3dae710c	0.08517656
10	0xbde8cbf7	-0.11367028
11	0xbe2da7c0	-0.16958523
12	0x3d36099b	0.044442754
13	0x3e1dc408	0.15406811
14	0xbdab9a79	-0.08379073
15	0xbae5e690	-0.0017540026
16	0x3b4d0b2a	0.0031287172
17	0x3de92402	0.11383821
18	0xbe47288f	-0.19449066
19	0xbd32797e	-0.043572895
20	0xbe4f779a	-0.20260468
21	0x3d84c8f4	0.06483641
22	0x3e2b9acd	0.1675827
23	0x3d904a9f	0.07045483
24	0x3cf75ef3	0.030196643
25	0x3db819a4	0.089892656
26	0xbdae0a11	-0.08498014
27	0x3be98412	0.0071263397
28	0xbe44480b	-0.19168107
29	0xbdcbd5b2	-0.099528685
30	0x3e5fe3d6	0.21864256
31	0xbc99ecdd	-0.018789703
32	0x3dfaa1bf	0.12237882
33	0x3d5f52ba	0.054522254
34	0xbd8d77ac	-0.06907591
35	0x3da8027c	0.08203599
36	0x3e57a399	0.21058501
37	0x3dcd3ea8	0.10021716
38	0x3e49527a	0.19660369
39	0xbcb4c2a6	-0.022065472
40	0x3dacb510	0.084329724
41	0x3d916ced	0.07100854
42	0x3d2e7cae	0.042599373
43	0x3d3ec345	0.046572942
44	0x3e121d77	0.14269052
45	0x3dba289f	0.09089779
46	0xbe53f9fe	-0.20700833
47	0x3cb6d639	0.022318946
48	0x3e32c510	0.17457986
49	0x3dd0bbeb	0.101920925
50	0xbdeebbae	-0.11656891
51	0xbd95da7b	-0.073170625
52	0x3e48aac6	0.19596395
53	0xbd2cc489	-0.042179618
54	0x3e1d743a	0.15376368
55	0xbe1f6651	-0.15566374
56	0xbe4098d2	-0.18808296
57	0xbe235594	-0.15950614
58	0x3d45d799	0.048301313
59	0x3d4a4c9e	0.049389474
60	0xbd30c49c	-0.04315625
61	0x3d516e7f	0.051130768
62	0x3e350dbe	0.17681023
63	0x3bfdb4a3	0.007742481
64	0xbddeacc9	-0.108728
65	0xbe3e6623	-0.1859365
66	0xbe3279c0	-0.17429256
67	0xbd285314	-0.041094854
68	0xbe432860	-0.1905837
69	0x3c4c51da	0.012470687
70	0x3cf9caad	0.030492151
71	0x3e4ebafe	0.2018852
72	0x3cb368eb	0.021900615
73	0xbd0eae9a	-0.03483448
74	0xbe48407d	-0.1955585
75	0xbe206d42	-0.15666679
76	0xbb3d1d7f	-0.0028856692
77	0xbded5080	-0.1158762
78	0x3ca150b3	0.0196918
79	0x3e2dff26	0.16991863
80	0x3e2dd858	0.1697706
81	0xbe09ae3a	-0.13445368
82	0xbd520f44	-0.05128409
83	0x3da1439d	0.07874224
84	0x3c3d4abc	0.011553463
85	0x3e3a0876	0.1816729
86	0x3e196974	0.14981633
87	0x3d0c8c27	0.034313347
88	0x3de29535	0.11063615
89	0x3dd04279	0.10168929
90	0x3dd1dd36	0.10247271
91	0xbcba5c16	-0.022748988
92	0x3e543053	0.20721559
93	0x3e0d5416	0.13801607
94	0xbe1af2b6	-0.1513165
95	0xbd9c858b	-0.07642659
96	0xbc926575	-0.017870644
97	0xbdc2f854	-0.09520021
98	0xba05c837	-0.00051033817
99	0xbd654ddc	-0.055982456
100	0x3e279d29	0.16368546
101	0x3d48ea0a	0.049051322
102	0xbddf39e8	-0.108997166
103	0x3e0c8909	0.1372415
104	0x3dfb6cd8	0.1227662
105	0x3bc47ec3	0.0059965565
106	0x3e40dd78	0.18834484
107	0x3c9f7960	0.019467056
108	0xbcb36332	-0.021897886
109	0xbe69ead4	-0.22843486
110	0xbe0ce16b	-0.13757865
111	0xbe46e0d4	-0.19421703
112	0xbd832794	-0.06404033
113	0x3e2a4875	0.16629203
114	0x3ceb28f9	0.02870606
115	0xbdbda102	-0.092592254
116	0xbe3fa7e7	-0.18716393
117	0xbd885231	-0.06656302
118	0xbe072ea7	-0.1320139
119	0x3e2bd708	0.16781247
120	0xbe2c074a	-0.16799656
121	0x3e1aa949	0.1510364
122	0x3e04c225	0.12964685
123	0x3e05b906	0.13058862
124	0x3c7d8133	0.015472698
125	0x3e412af0	0.18864036
126	0xbd8c7cea	-0.06859763
127	0x3e43c571	0.19118287
128	0x3d829d67	0.06377678
129	0x3db7d1ae	0.0897554
130	0xbe1c39c0	-0.15256405
131	0xbdd6488e	-0.104630575
132	0xbe0698a7	-0.1314417
133	0xbd986058	-0.07440251
134	0x3d86cfc5	0.06582598
135	0x3cb77466	0.02239437
136	0x3d977a41	0.07396365
137	0x3dd3e93f	0.103472225
138	0x3c752436	0.014962247
139	0x3b4d4cd1	0.0031326304
140	0xbe37629f	-0.17908715
141	0x3e619e07	0.22032939
142	0x3e4c69f4	0.19962293
143	0xbd145ce6	-0.036221407
144	0xbe4470e1	-0.19183685
145	0xbe1c7ef6	-0.15282807
146	0xbe24d7a5	-0.16097887
147	0xbc91cb64	-0.01779718
148	0x3d895c51	0.06707061
149	0x3e09996f	0.13437437
150	0xbda9fec5	-0.083005466
151	0x3e096a0e	0.13419363
152	0xbd96c841	-0.07362414
153	0x3e23501f	0.15948533
154	0xbdf04b84	-0.117331535
155	0x3c643b7a	0.013930196
156	0x3e4018f8	0.18759525
157	0xbe40b58c	-0.18819255
158	0x3da17950	0.07884467
159	0x3cc07525	0.023493359
160	0x3e37f86e	0.17965862
161	0xbe311de2	-0.17296556
162	0x3e1d5da9	0.1536776
163	0x3d84f034	0.064911276
164	0x3e559eb3	0.2086132
165	0x3ce3beb6	0.027800899
166	0x3e1270c5	0.1430083
167	0x3d862ed3	0.065519
168	0xbd1bfd9a	-0.03808365
169	0x3d174603	0.036932003
170	0x3d83d680	0.06437397
171	0xbe57b12d	-0.21063681
172	0x3b0ba450	0.0021307655
173	0x3e3c4489	0.18385519
174	0x3e45a534	0.19301301
175	0xbdbaead2	-0.0912682
176	0x3d5abb04	0.05340101
177	0x3e422534	0.18959504
178	0x3dbc7e34	0.09203759
179	0x3e2b2023	0.16711478
180	0xbd683f2a	-0.056700863
181	0xbe416411	-0.18885829
182	0x3dc62337	0.096746854
183	0x3cc2f446	0.02379812
184	0xba6ee0c8	-0.00091124745
185	0xbe0a8041	-0.13525487
186	0xbe26b876	-0.16281304
187	0xbe174e2d	-0.14775915
188	0x3dd08748	0.10182053
189	0xbdbeb69c	-0.09312174
190	0xbdd677b2	-0.10472049
191	0xbdb8b34e	-0.09018575
192	0x3e1e977e	0.15487477
193	0x3df33bed	0.11876664
194	0xbe0d8dac	-0.13823575
195	0xbe60ba9d	-0.21946187
196	0xbdf77920	-0.1208365
197	0xbda48cfd	-0.08034704
198	0xbdae7f4b	-0.08520373
199	0xbda25b01	-0.07927514
200	0xbe518c16	-0.20463595
201	0x3dbe5c4e	0.092949495
202	0x3e5a1a24	0.21299034
203	0xbd2c4c46	-0.042064928
204	0xbe24e5e8	-0.16103327
205	0xbdc73dc7	-0.0972858
206	0xbca32ae5	-0.019917915
207	0x3d8b4348	0.06799942
208	0xbe1b758d	-0.15181561
209	0x3e4b8009	0.1987306
210	0xbdad0f79	-0.08450217
211	0x3ca77343	0.020440703
212	0x3db9743e	0.090553746
213	0xbc9a28a6	-0.01881821
214	0x3ddafe24	0.10693005
215	0x3e324710	0.1740992
216	0x3e1aad96	0.1510528
217	0xbe3d82bf	-0.18506907
218	0xbde20c4d	-0.110375024
219	0x3dd2bf52	0.10290398
220	0x3e5b8e0e	0.21440908
221	0x3c13f64c	0.00903089
222	0xbe2b7e5c	-0.16747421
223	0xbe1aab83	-0.15104489
224	0x3d81b567	0.06333428
225	0xbcc1397d	-0.023586983
226	0xbc24bddc	-0.010055032
227	0x3d3e99f5	0.046533544
228	0xbe112667	-0.14174806
229	0xbd537f54	-0.0516351
230	0x3e5a9f1c	0.21349758
231	0xbd740281	-0.0595727
232	0x3c7cbfd8	0.0154265985
233	0x3e14145b	0.1446089
234	0x3c5619fc	0.013067719
235	0x3e081209	0.1328813
236	0x3e1c4d4e	0.15263864
237	0x3d52f545	0.05150344
238	0xbdc1065d	-0.09425042
239	0x3d971019	0.07376117
240	0x3d1434a8	0.03618303
241	0x3caacd63	0.02084989
242	0xbe6156c8	-0.2200576
243	0xbe3bcf8a	-0.18340889
244	0xbe0d7ea5	-0.13817842
245	0x3e27dd89	0.16393103
246	0x3e576cca	0.21037593
247	0x3d8420af	0.064515464
248	0xbda5f0f3	-0.08102598
249	0xbd2e9ac1	-0.042628054
250	0x3c14ad52	0.009074526
251	0x3d754087	0.05987599
252	0xbdb75047	-0.089508586
253	0x3e3f7890	0.18698335
254	0xbe1fc1ac	-0.15601224
255	0xbe53a167	-0.20667039

bn1.weight f4 [128]
0	0x3f7e50d5	0.9934209
1	0x3f827286	1.01912
2	0x3f811df5	1.0087267
3	0x3f7b9250	0.9827013
4	0x3f8101c0	1.0078659
5	0x3f8116c6	1.0085075
6	0x3f7c2770	0.98497677
7	0x3f7e5e9a	0.993631
8	0x3f80b1d7	1.0054272
9	0x3f80bfbe	1.0058515
10	0x3f8122dc	1.0088763
11	0x3f7dea48	0.9918561
12	0x3f7f9d2c	0.998492
13	0x3f7dbea7	0.9911904
14	0x3f810e7e	1.0082548
15	0x3f823c54	1.0174661
16	0x3f7c0c8c	0.98456645
17	0x3f8016a1	1.0006906
18	0x3f7d08f2	0.98841774
19	0x3f7ffd37	0.9999575
20	0x3f7cb182	0.98708355
21	0x3f7ceeca	0.98801863
22	0x3f7f07a4	0.99621034
23	0x3f815ac1	1.0105821
24	0x3f7b4cac	0.98163867
25	0x3f7c47ee	0.98547256
26	0x3f7f882d	0.9981716
27	0x3f7cfd59	0.9882408
28	0x3f7ee1ec	0.9956348
29	0x3f801146	1.0005271
30	0x3f7f8783	0.9981615
31	0x3f80a0cb	1.004907
32	0x3f7f3816	0.99694955
33	0x3f800e3f	1.0004348
34	0x3f80e157	1.0068768
35	0x3f7e1732	0.99254143
36	0x3f7b039b	0.98052377
37	0x3f81c3a0	1.0137825
38	0x3f80017d	1.0000454
39	0x3f80042c	1.0001273
40	0x3f81f90c	1.0154128
41	0x3f814952	1.01005
42	0x3f7fc037	0.9990267
43	0x3f7dda18	0.9916091
44	0x3f812dbe	1.0092084
45	0x3f8176e4	1.0114408
46	0x3f81b7c8	1.013421
47	0x3f7d3629	0.98910767
48	0x3f828207	1.0195931
49	0x3f7d9bc0	0.9906578
50	0x3f816289	1.0108196
51	0x3f819ac8	1.012536
52	0x3f7ed5c9	0.9954496
53	0x3f7c5b36	0.98576677
54	0x3f816c9d	1.0111271
55	0x3f81a9e3	1.012997
56	0x3f80d54f	1.0065097
57	0x3f7ff6a8	0.9998574
58	0x3f7fd584	0.99935174
59	0x3f814efa	1.0102227
60	0x3f80b991	1.005663
61	0x3f7d0f09	0.98851067
62	0x3f7cc6b4	0.98740697
63	0x3f801fa0	1.0009651
64	0x3f811a73	1.0086197
65	0x3f81abbb	1.0130533
66	0x3f806e24	1.0033612
67	0x3f8121fb	1.0088495
68	0x3f827626	1.0192306
69	0x3f7b6184	0.9819567
70	0x3f82188c	1.0163741
71	0x3f81e982	1.0149386
72	0x3f7c8ae9	0.9864946
73	0x3f7dd57e	0.9915389
74	0x3f81fd65	1.0155455
75	0x3f7b317c	0.9812238
76	0x3f80445c	1.0020862
77	0x3f7be0ee	0.9839009
78	0x3f7ca482	0.9868852
79	0x3f7bc0f4	0.983413
80	0x3f81bfa1	1.0136606
81	0x3f81a2c4	1.0127797
82	0x3f81e064	1.0146604
83	0x3f7dfd2e	0.99214447
84	0x3f7d23c0	0.98882675
85	0x3f80fd32	1.0077269
86	0x3f8221f9	1.0166618
87	0x3f8219ed	1.0164162
88	0x3f7e8a42	0.99429715
89	0x3f8189f9	1.0120231
90	0x3f8021bb	1.0010294
91	0x3f8064f9	1.0030814
92	0x3f7ebd27	0.99507374
93	0x3f7c65d0	0.98592854
94	0x3f7b6f95	0.98217136
95	0x3f812bcd	1.0091492
96	0x3f7cb5ce	0.9871491
97	0x3f810101	1.0078431
98	0x3f819846	1.0124595
99	0x3f7cee29	0.98800904
100	0x3f800f6f	1.000471
101	0x3f7bbe29	0.98337036
102	0x3f7e92c9	0.99442726
103	0x3f7b2af3	0.9811241
104	0x3f7d9056	0.99048364
105	0x3f81da59	1.014476
106	0x3f823b87	1.0174416
107	0x3f7c531e	0.98564327
108	0x3f81f535	1.0152956
109	0x3f7e0783	0.9923021
110	0x3f81fd62	1.0155451
111	0x3f7e7896	0.9940275
112	0x3f81beba	1.013633
113	0x3f81c416	1.0137966
114	0x3f826d6f	1.0189646
115	0x3f8276aa	1.0192463
116	0x3f80bebe	1.005821
117	0x3f7d9428	0.99054193
118	0x3f7d1838	0.9886508
119	0x3f7c8155	0.98634845
120	0x3f7db2f9	0.99101216
121	0x3f8047a8	1.0021868
122	0x3f7e16a7	0.99253315
123	0x3f7e34a2	0.9929906
124	0x3f8012ec	1.0005774
125	0x3f7f2272	0.99661934
126	0x3f7f6efc	0.99778724
127	0x3f81d121	1.0141946

bn1.bias f4 [128]
0	0xbba309e8	-0.004975546
1	0x3c98015a	0.018555332
2	0x3c0558dd	0.008138862
3	0xbc855bce	-0.016279127
4	0x3c49a99d	0.012308505
5	0x3bbd141e	0.0057702204
6	0xbc8f55b5	-0.017496923
7	0xbb83c120	-0.004020825
8	0xbc9695ae	-0.01838192
9	0x3b28a248	0.0025731493
10	0x3c245299	0.010029458
11	0xbb123d7c	-0.002231448
12	0xb9921330	-0.00027861586
13	0xbbcf8410	-0.0063328817
14	0xba8660f9	-0.0010252289
15	0xbbd490a3	-0.0064869686
16	0xbc7bce38	-0.015368991
17	0xba3941f0	-0.00070670154
18	0xbc9c6e22	-0.019095484
19	0x39e4b048	0.0004361889
20	0xbc2fc177	-0.010727278
21	0xbc25640d	-0.010094655
22	0x3b4b6089	0.0031032881
23	0x3bb71499	0.005587172
24	0xbc8866b0	-0.016650528
25	0xbc4cf16e	-0.012508733
26	0xbc66bd9a	-0.0140832905
27	0xbc47d26d	-0.0121961655
28	0x3b1149b2	0.002216917
29	0x3b52f298	0.0032188054
30	0x3b481d74	0.0030535134
31	0x3b63527a	0.003468661
32	0xbc80ef26	-0.015739035
33	0xbbdcbe7a	-0.0067365738
34	0x3b8d4cdb	0.0043121404
35	0xbc26f24a	-0.010189602
36	0xbc921b86	-0.01783539
37	0x3c84c088	0.016205087
38	0xbb13401b	-0.002246863
39	0xbc44d270	-0.012013063
40	0x3c8e9ed1	0.017409714
41	0x39dd25a8	0.0004218046
42	0xbb45d543	-0.0030186928
43	0xbc299d70	-0.010352477
44	0x3c4faddf	0.012675731
45	0xbc5a4160	-0.013321251
46	0x3c46f93b	0.012144382
47	0xbc499810	-0.012304321
48	0x3c418f88	0.011814006
49	0xbc6b254b	-0.014352153
50	0x3b61ba74	0.003444341
51	0x3c29a0f2	0.010353314
52	0x3c65950b	0.014012585
53	0xbc52d196	-0.012867352
54	0x3c64507e	0.013935206
55	0x3c3e3791	0.011609928
56	0x3c9e3958	0.019314453
57	0x3b011145	0.0019694131
58	0xbb371394	-0.0027935253
59	0x3c7e0801	0.015504838
60	0x3b25d662	0.0025304784
61	0xbc3ce77c	-0.0115298
62	0xbc4915e9	-0.01227329
63	0x3b3c3add	0.0028721609
64	0x3bacf203	0.0052778735
65	0x3c57f67d	0.013181326
66	0x3bb03970	0.005377941
67	0x3c1da523	0.009621891
68	0x3c518abf	0.012789427
69	0xbc883c18	-0.016630217
70	0xbc3b5ff9	-0.011436456
71	0x3c84e96b	0.016224584
72	0x3aaf85f7	0.0013391365
73	0xbc00ed04	-0.007869009
74	0x3c0d1f06	0.008613354
75	0xbc9f526b	-0.01944848
76	0x3bafc16a	0.005363633
77	0xbc2c1988	-0.010504134
78	0xbc85ec9e	-0.01634818
79	0xbc8fbd56	-0.017546337
80	0x3c436781	0.011926533
81	0x3c70aca0	0.0146895945
82	0x3c5412e3	0.012943956
83	0x3c5d2752	0.013498144
84	0xbc91abc5	-0.017782101
85	0x3c2e4f3c	0.010639008
86	0x3bce5153	0.0062963157
87	0xbaca877c	-0.0015451754
88	0xbc3c5f22	-0.011497291
89	0x3c9f5237	0.019448383
90	0x3a690fee	0.00088906183
91	0xbc88bdec	-0.016692124
92	0xbc9e4a7b	-0.019322624
93	0xba791d26	-0.00095029396
94	0xbc8c3061	-0.017112913
95	0x3bf59aa6	0.007495242
96	0xbc556671	-0.013024912
97	0x3bb27f30	0.005447291
98	0x3c8c9c98	0.017164513
99	0xbc2ed1a3	-0.0106700985
100	0x3b1e2fb0	0.002413731
101	0x3c46ff6b	0.012145857
102	0xbc55d68b	-0.013051639
103	0xbc90c9f8	-0.017674431
104	0xbb57779a	-0.0032877685
105	0x3c52943c	0.012852725
106	0x3c8c8c18	0.017156646
107	0xbc8e1789	-0.017345207
108	0x3c82f8ce	0.01598778
109	0xbb590ef5	-0.0033120487
110	0xbc2dbca8	-0.010604061
111	0xbc1f1cd9	-0.009711468
112	0x3c35bdbe	0.011092601
113	0x3be99f0c	0.0071295556
114	0x3c41f5d3	0.011838394
115	0x3c9bf8f1	0.019039603
116	0x3c6ee9fc	0.014582153
117	0xbc52b9b8	-0.012861662
118	0xbc4cf9af	-0.012510701
119	0xbc63dbc9	-0.013907381
120	0xbc2eb4bc	-0.010663208
121	0x3b40391a	0.002933091
122	0xbc30259d	-0.010751155
123	0xbb2fd864	-0.002683186
124	0xbc496fe3	-0.012294742
125	0xbb980ca8	-0.0046401806
126	0x3a6c9358	0.00090246415
127	0xbb83ffc0	-0.0040282905

bn1.running_mean f4 [128]
0	0xbd30475d	-0.043036807
1	0xbc1533d6	-0.009106597
2	0xbd1305a3	-0.035894047
3	0xbb7e7acc	-0.0038830517
4	0xbcdb00a3	-0.026733702
5	0xbb930679	-0.0044868556
6	0x3c50bcc6	0.01274032
7	0xbd86f0f3	-0.06588926
8	0x3d8fcd72	0.070216075
9	0x3d9c5003	0.076324485
10	0xbb8c8bfb	-0.004289148
11	0xbd378c33	-0.04481144
12	0x3d66f637	0.056387153
13	0xbcff9aae	-0.031201687
14	0xbce312e0	-0.027718961
15	0xbd07205e	-0.032989852
16	0x3d339d14	0.043850973
17	0xbb75b8fe	-0.0037494297
18	0x3c678a51	0.014132098
19	0xbcea5bdc	-0.028608255
20	0xbdc8b94b	-0.09800967
21	0xbd7b204c	-0.061310098
22	0xbc74595b	-0.014913882
23	0x3cb46725	0.02202184
24	0xbc436b69	-0.011927464
25	0xbd9f14bc	-0.07767627
26	0x3df20678	0.1181764
27	0x3c8f7c49	0.017515318
28	0xbc52a1b8	-0.01285594
29	0xbb3981cc	-0.0028306125
30	0x3d13dcde	0.036099307
31	0x3c2b102e	0.010440869
32	0x3cd685fa	0.026186932
33	0x3d360e8a	0.04444746
34	0xbdb6d380	-0.08927059
35	0xbcd76808	-0.026294723
36	0x3d9260d4	0.07147375
37	0xbb673d6a	-0.0035284408
38	0xbd0d000f	-0.034423884
39	0xbd851f49	-0.06500108
40	0xbcd40570	-0.025881499
41	0x3c9a2791	0.018817695
42	0xbca9c74a	-0.020724911
43	0x3c2de949	0.010614702
44	0xbc8739b8	-0.016507015
45	0x3d8d783a	0.06907697
46	0x3cb4ee35	0.022086242
47	0x3d326b78	0.04355952
48	0xbd58fac0	-0.05297351
49	0x3d94570b	0.07243165
50	0xbceb3084	-0.028709657
51	0x3c1e5abf	0.00966519
52	0xbd47cf64	-0.048781767
53	0xbcd6d9b6	-0.02622686
54	0xbd5e97bc	-0.054343924
55	0x3d9f625c	0.077824324
56	0xbcb77821	-0.02239615
57	0xbd11302b	-0.035446327
58	0xbdaca3f1	-0.08429707
59	0x3cbbe13d	0.02293455
60	0x3c25da92	0.010122912
61	0x3d4bacab	0.049725216
62	0x3da812a3	0.0820668
63	0x3dabf73c	0.083967656
64	0xbda5875d	-0.08082459
65	0xbda1844b	-0.07886561
66	0xbd0b965c	-0.03407894
67	0xbdd578eb	-0.10423454
68	0x3d40cb89	0.047069106
69	0xbd06b0fc	-0.03288363
70	0x3d43e05e	0.047821395
71	0x3d1dcb89	0.038524184
72	0x3e012612	0.12612179
73	0x3b49dd50	0.0030802079
74	0xbdb45e89	-0.08807094
75	0xbc91dc70	-0.017805308
76	0xbdc5070c	-0.09620485
77	0x3d5151ba	0.05110333
78	0x3d2f9744	0.042868868
79	0xbd86a4fa	-0.065744355
80	0xbd6db1ae	-0.058030777
81	0x3d3536d8	0.044241756
82	0xbda80bbb	-0.082053624
83	0xbd884efd	-0.06655691
84	0xbcb985a8	-0.02264674
85	0xbcfd8c79	-0.030950772
86	0xbd266ac0	-0.04062915
87	0x3d5c0bf9	0.053722356
88	0x3d6bee68	0.05760041
89	0x3d9d2708	0.0767346
90	0x3c6e1643	0.014531675
91	0xbbfd034a	-0.0077213394
92	0x3d5f7cd8	0.05456242
93	0xbd4b3062	-0.04960669
94	0xbe101896	-0.14071879
95	0xbbaa9fae	-0.0052070236
96	0x3c95f16a	0.018303592
97	0x3d70e446	0.05881145
98	0xbcdd3cd2	-0.02700654
99	0x3d3b2e52	0.04569847
100	0x3c94a5ad	0.018145407
101	0xbd39b938	-0.045342654
102	0x3ce8a560	0.02839917
103	0xbb649214	-0.0034877108
104	0xbd2110a5	-0.039322514
105	0xbd0f857f	-0.03503942
106	0xbbc57ffa	-0.006027219
107	0xbb942f1f	-0.004522219
108	0xbd62f6d4	-0.055411175
109	0x3c351d15	0.011054297
110	0xbd5e67c6	-0.054298185
111	0xbd3ec726	-0.04657664
112	0x3d1bce00	0.038038254
113	0x3d455c53	0.04818375
114	0x3d1ca8c1	0.038246874
115	0x3d61ea06	0.055154823
116	0xbd91bd4a	-0.07116182
117	0xbd80d71a	-0.06291027
118	0xbda4955f	-0.08036303
119	0xbc823706	-0.015895378
120	0x3d006a10	0.03135115
121	0x3d907ddd	0.070552565
122	0x3b12705b	0.00223448
123	0x3d8e021e	0.069339976
124	0x3d7bb7a2	0.061454423
125	0x3db7638d	0.08954535
126	0xbd1b52e2	-0.03792084
127	0xbd55650c	-0.05209832

bn1.running_var f4 [128]
0	0x3f2d67d5	0.6773656
1	0x3f2a5762	0.66539586
2	0x3f29e610	0.6636667
3	0x3f2da174	0.6782448
4	0x3f2dbad8	0.67863226
5	0x3f2ade59	0.66745526
6	0x3f2e3d14	0.6806195
7	0x3f30b8e1	0.690321
8	0x3f322776	0.6959146
9	0x3f302cb7	0.6881823
10	0x3f2aab10	0.6666727
11	0x3f2d6ad6	0.67741144
12	0x3f2d336a	0.67656577
13	0x3f2b7b0d	0.66984636
14	0x3f2b36cd	0.66880494
15	0x3f2cf28f	0.67557615
16	0x3f2d0c6c	0.6759708
17	0x3f2d922f	0.67801183
18	0x3f2b4920	0.66908455
19	0x3f302791	0.68810374
20	0x3f313e61	0.6923581
21	0x3f2dfcd7	0.6796393
22	0x3f29d541	0.66341025
23	0x3f2f2ac8	0.68424654
24	0x3f2b3c27	0.6688866
25	0x3f308ed9	0.6896797
26	0x3f3d9333	0.74052733
27	0x3f305720	0.6888294
28	0x3f28fefe	0.6601409
29	0x3f2b4bcd	0.6691254
30	0x3f2a4358	0.6650901
31	0x3f2a659c	0.66561294
32	0x3f2e597c	0.6810529
33	0x3f310c7c	0.69159675
34	0x3f33da50	0.70254993
35	0x3f29fbf6	0.66400087
36	0x3f34201d	0.703615
37	0x3f297ee0	0.6620922
38	0x3f2d2ab6	0.67643297
39	0x3f2da308	0.6782689
40	0x3f3300c6	0.69923055
41	0x3f2ac831	0.6671172
42	0x3f2a9357	0.6663107
43	0x3f2a97ca	0.6663786
44	0x3f2fd6ea	0.6868731
45	0x3f2e3dc1	0.6806298
46	0x3f2fd491	0.68683726
47	0x3f2b6e5d	0.66965276
48	0x3f2fe464	0.6870787
49	0x3f30629a	0.68900454
50	0x3f29cd8f	0.6632928
51	0x3f2bebd1	0.671567
52	0x3f2c082e	0.6719998
53	0x3f2ae1bc	0.66750693
54	0x3f2cc4ea	0.67487967
55	0x3f360432	0.7110015
56	0x3f2b9434	0.67023015
57	0x3f2be343	0.6714365
58	0x3f37f79a	0.71862185
59	0x3f2ad6a1	0.6673375
60	0x3f2c38c5	0.67274123
61	0x3f2c7dfc	0.67379737
62	0x3f328cda	0.6974617
63	0x3f38f147	0.7224316
64	0x3f305df3	0.68893355
65	0x3f30107e	0.68775165
66	0x3f2d8b59	0.6779075
67	0x3f39686f	0.7242498
68	0x3f2d8ccb	0.6779296
69	0x3f2d9601	0.6780701
70	0x3f2f4a5b	0.6847283
71	0x3f2a4674	0.6651375
72	0x3f3d494e	0.7393998
73	0x3f28be1c	0.65915084
74	0x3f30dc28	0.6908593
75	0x3f2a9d6f	0.66646475
76	0x3f3841a7	0.7197518
77	0x3f2bb494	0.67072415
78	0x3f295f2e	0.6616086
79	0x3f2d8769	0.67784745
80	0x3f2e17e8	0.6800523
81	0x3f2f63d8	0.68511724
82	0x3f2e6cef	0.6813497
83	0x3f2d7e00	0.67770386
84	0x3f29a5e4	0.66268754
85	0x3f2b49e9	0.6690965
86	0x3f2de2de	0.67924297
87	0x3f2a876f	0.66612905
88	0x3f2df0ef	0.6794576
89	0x3f309fa7	0.6899361
90	0x3f2d5aae	0.6771649
91	0x3f2962ce	0.6616639
92	0x3f2ea5f8	0.68222
93	0x3f2e65b1	0.6812392
94	0x3f402e4c	0.75070643
95	0x3f2b3cc2	0.66889584
96	0x3f28beca	0.6591612
97	0x3f2f4591	0.68465525
98	0x3f2db908	0.6786046
99	0x3f2e6a12	0.681306
100	0x3f2a5a8d	0.6654442
101	0x3f30980b	0.68982
102	0x3f312b83	0.6920702
103	0x3f2aab92	0.66668046
104	0x3f2e25bf	0.68026346
105	0x3f2cc84c	0.6749313
106	0x3f2b4eb0	0.6691694
107	0x3f2b0ff3	0.6682121
108	0x3f371186	0.71511114
109	0x3f300402	0.68756115
110	0x3f31d507	0.6946568
111	0x3f2b5519	0.66926724
112	0x3f2e731f	0.6814441
113	0x3f346a8d	0.70475084
114	0x3f2acb43	0.667164
115	0x3f31e93a	0.694965
116	0x3f3553c5	0.7083095
117	0x3f300111	0.6875163
118	0x3f3150d2	0.69263947
119	0x3f2ad759	0.66734844
120	0x3f2b5b8f	0.6693658
121	0x3f335728	0.70054865
122	0x3f2e77c1	0.6815148
123	0x3f2f9e10	0.6860056
124	0x3f36aa0e	0.7135323
125	0x3f32add7	0.6979651
126	0x3f2d4675	0.67685634
127	0x3f2bdfb8	0.6713824

conv2.bias f4 [256]
0	0x36900c63	4.2929764e-06
1	0xb5c17468	-1.4413499e-06
2	0xb6b29982	-5.322684e-06
3	0xb5c3485a	-1.4549689e-06
4	0xb6c95950	-6.000664e-06
5	0xb6885756	-4.063283e-06
6	0xb634b5a2	-2.6927814e-06
7	0xb5ebb3ed	-1.756123e-06
8	0xb81a955f	-3.6855574e-05
9	0xb7a13fec	-1.9222462e-05
10	0xb85245f6	-5.0133058e-05
11	0xb77d5ec2	-1.5102038e-05
12	0xb70da070	-8.44161e-06
13	0xb7e89197	-2.772435e-05
14	0xb65d8f05	-3.3014815e-06
15	0x37b3cd7e	2.1434153e-05
16	0x3699944c	4.5770194e-06
17	0xb793be89	-1.761249e-05
18	0x345eb010	2.0739412e-07
19	0xb779a2eb	-1.4879489e-05
20	0x384e2f4f	4.9158287e-05
21	0xb80bc198	-3.332048e-05
22	0xb71e79c9	-9.445889e-06
23	0x373c3d47	1.12199405e-05
24	0x37129bdc	8.738567e-06
25	0x36fa2687	7.4550658e-06
26	0xb77b50bf	-1.4979566e-05
27	0xb77af939	-1.4959188e-05
28	0x36d18bb6	6.24495e-06
29	0xb7140b11	-8.824064e-06
30	0xb6d2ddd4	-6.284312e-06
31	0x3783b29d	1.569959e-05
32	0x36eb7111	7.0167084e-06
33	0x3625e9e3	2.4723056e-06
34	0x377b93c7	1.4995173e-05
35	0x37ea3923	2.792158e-05
36	0xb6f7dc26	-7.3868023e-06
37	0x37142b25	8.831533e-06
38	0xb74cce05	-1.2207315e-05
39	0xb51a9886	-5.759142e-07
40	0x37abffd0	2.050391e-05
41	0x35da4a2e	1.6263855e-06
42	0x37a31664	1.944154e-05
43	0x351054e4	5.376771e-07
44	0x37d887c5	2.581243e-05
45	0xb720dad1	-9.58769e-06
46	0xb580c710	-9.594678e-07
47	0x36e8e919	6.941275e-06
48	0x378cfbb9	1.6806518e-05
49	0xb72be6be	-1.0246118e-05
50	0xb818b0a2	-3.6404126e-05
51	0x378a8ae7	1.6515563e-05
52	0x36ab6d70	5.1089373e-06
53	0xb75e39dc	-1.3245703e-05
54	0x35948a0e	1.1067038e-06
55	0xb786ae11	-1.60551e-05
56	0x36fd96cc	7.5575426e-06
57	0xb5d09b91	-1.5542483e-06
58	0x379fe03a	1.905869e-05
59	0x376b3b85	1.40209495e-05
60	0xb700a804	-7.668514e-06
61	0x3644a0bc	2.9299836e-06
62	0x36d1369b	6.2350423e-06
63	0xb736022e	-1.0848553e-05
64	0x37f2bd7c	2.8936884e-05
65	0x36cd4153	6.117081e-06
66	0xb8428cea	-4.638444e-05
67	0xb5e3b24c	-1.6964709e-06
68	0xb7364f7a	-1.086655e-05
69	0x3795b23d	1.7845183e-05
70	0x37a7de43	2.001145e-05
71	0xb79df02a	-1.8827694e-05
72	0xb7a08a51	-1.9137895e-05
73	0xb4c82d48	-3.728585e-07
74	0xb70f4282	-8.538949e-06
75	0xb693d5c7	-4.4058283e-06
76	0xb74a40fc	-1.2055269e-05
77	0x3789a90a	1.6410388e-05
78	0xb75c334f	-1.3124968e-05
79	0x3736d696	1.08980075e-05
80	0x35a85d6b	1.2544164e-06
81	0x37db1f16	2.612131e-05
82	0x371fde14	9.528845e-06
83	0xb7a69e16	-1.9862357e-05
84	0x377bcd23	1.5008528e-05
85	0xb7dc0c6c	-2.6231828e-05
86	0x383d6135	4.5151643e-05
87	0xb722c699	-9.702192e-06
88	0x37519c30	1.2493736e-05
89	0x368295ce	3.8917415e-06
90	0xb7531e9a	-1.2583705e-05
91	0x377025ac	1.4313886e-05
92	0xb7278499	-9.9848485e-06
93	0xb6a91d94	-5.040036e-06
94	0x36238158	2.436418e-06
95	0xb76a7d46	-1.3976654e-05
96	0x37457223	1.176869e-05
97	0x36647091	3.404017e-06
98	0xb4bcc80a	-3.5163276e-07
99	0x36895afc	4.09351e-06
100	0xb6a907cf	-5.0375015e-06
101	0xb4b7ea98	-3.4257096e-07
102	0x3698303b	4.5355678e-06
103	0xb7046844	-7.892089e-06
104	0x360cf7d9	2.1005892e-06
105	0xb74d605e	-1.2241389e-05
106	0xb66360df	-3.3882022e-06
107	0xb6c8b45e	-5.981462e-06
108	0x3713aae0	8.801668e-06
109	0x37cdef9b	2.454948e-05
110	0x37a1d089	1.9289802e-05
111	0xb6ac0bf0	-5.127389e-06
112	0xb7ca2023	-2.4095241e-05
113	0x381d0365	3.743488e-05
114	0xb78e8150	-1.6987935e-05
115	0x37737802	1.451187e-05
116	0xb773bb9d	-1.4527611e-05
117	0x373afa88	1.1144795e-05
118	0x3863aae1	5.428016e-05
119	0xb6ad3515	-5.1619813e-06
120	0x378d3947	1.6835182e-05
121	0xb742270f	-1.1572395e-05
122	0xb71fce37	-9.525152e-06
123	0x37558905	1.2727692e-05
124	0xb7a84917	-2.0061196e-05
125	0x367640b0	3.669451e-06
126	0x35c8fcda	1.4974751e-06
127	0xb8127cb3	-3.4925248e-05
128	0xb5e3a671	-1.6961259e-06
129	0x377bcc24	1.5008296e-05
130	0xb725406b	-9.849765e-06
131	0xb532e6b3	-6.664588e-07
132	0x37473593	1.1873798e-05
133	0x37f120be	2.8744686e-05
134	0xb84fd919	-4.9554834e-05
135	0x37bd945e	2.2599645e-05
136	0xb48a71e8	-2.578738e-07
137	0xb762f28f	-1.3527125e-05
138	0x374f90ba	1.2371858e-05
139	0xb70f046a	-8.524492e-06
140	0x385d8451	5.2813735e-05
141	0xb73cd9a5	-1.12563475e-05
142	0x36d2e9e5	6.2857166e-06
143	0x37843b8b	1.5763353e-05
144	0xb5c377ba	-1.4563477e-06
145	0xb7c792cc	-2.3791006e-05
146	0xb82dee40	-4.14683e-05
147	0x35d7a73e	1.6067422e-06
148	0xb7e8b786	-2.7742015e-05
149	0xb5ea34fd	-1.744978e-06
150	0xb801c06e	-3.093521e-05
151	0xb7b7f253	-2.1928141e-05
152	0x36e000c4	6.6758093e-06
153	0x37aaad14	2.0346175e-05
154	0xb6a336b5	-4.8641473e-06
155	0x352a084c	6.334201e-07
156	0x3770ad7c	1.4345507e-05
157	0x36bb7c04	5.5874716e-06
158	0x36ae3527	5.191792e-06
159	0xb7b4f9fe	-2.1574084e-05
160	0xb7b6a00d	-2.177062e-05
161	0xb780348a	-1.5283254e-05
162	0x34041774	1.230199e-07
163	0x372caa85	1.0291701e-05
164	0xb7da6466	-2.6034377e-05
165	0x37dbe5f6	2.6213918e-05
166	0xb50c1408	-5.2183213e-07
167	0xb546b7ec	-7.402839e-07
168	0xb6ff2244	-7.6035813e-06
169	0xb7b7ab07	-2.189494e-05
170	0xb73cd246	-1.1254631e-05
171	0xb6e33836	-6.771671e-06
172	0x37d0087c	2.4799483e-05
173	0x372af0fd	1.0188899e-05
174	0x37065bce	8.008397e-06
175	0x36c617c0	5.9036247e-06
176	0x36c084df	5.737514e-06
177	0xb7c20e24	-2.3133187e-05
178	0xb7170737	-9.001981e-06
179	0xb7c4f086	-2.3477023e-05
180	0x36c36359	5.8230185e-06
181	0x381932f1	3.6525485e-05
182	0x35c7d5c4	1.4888869e-06
183	0xb5f1c6e0	-1.801378e-06
184	0x3719052c	9.120715e-06
185	0xb765dc9d	-1.3700829e-05
186	0x3651d8e8	3.1269683e-06
187	0x36c64412	5.9087843e-06
188	0xb7154c06	-8.898793e-06
189	0xb72c8844	-1.0283726e-05
190	0x3540b2c4	7.178571e-07
191	0x371d17bd	9.363456e-06
192	0x3774a61e	1.45822105e-05
193	0xb77e1a8f	-1.5145763e-05
194	0xb587fb73	-1.0131465e-06
195	0xb59787d3	-1.1289907e-06
196	0x3632be24	2.6634743e-06
197	0xb732639c	-1.0632819e-05
198	0xb74f7a60	-1.2366654e-05
199	0xb7933bc3	-1.7551594e-05
200	0xb7f45ed5	-2.9131226e-05
201	0xb5c000ea	-1.4305381e-06
202	0xb8761d39	-5.8678186e-05
203	0x37666b23	1.3734013e-05
204	0x373fe573	1.143791e-05
205	0x381928f5	3.6516187e-05
206	0x3615e958	2.2338554e-06
207	0xb68d980e	-4.219829e-06
208	0xb7adae94	-2.0704501e-05
209	0xb6cffeef	-6.198759e-06
210	0xb7815219	-1.5416228e-05
211	0xb716760b	-8.968181e-06
212	0xb8134b62	-3.5117737e-05
213	0xb7707ce5	-1.4334194e-05
214	0x36d1fe02	6.258256e-06
215	0x376a7185	1.3973918e-05
216	0x371b3400	9.250827e-06
217	0xb69da00d	-4.697597e-06
218	0xb7110cec	-8.645682e-06
219	0x36f0d26a	7.177053e-06
220	0xb7b0e052	-2.1085292e-05
221	0x37ff0631	3.0401252e-05
222	0x3735bab6	1.0831913e-05
223	0x3519d04e	5.7300065e-07
224	0xb79cbc0a	-1.8684212e-05
225	0xb69721c3	-4.504081e-06
226	0xb76b12d0	-1.4011472e-05
227	0xb7c5b6fc	-2.3569439e-05
228	0x36f97a28	7.434999e-06
229	0x36f86cd2	7.4036443e-06
230	0xb6f4bb3e	-7.2935645e-06
231	0xb71d26b5	-9.366941e-06
232	0x37ad6e5f	2.0674603e-05
233	0xb69d4cc3	-4.687901e-06
234	0xb79aebae	-1.8467977e-05
235	0x3624c0de	2.4550168e-06
236	0x37c28367	2.3187791e-05
237	0x372f2f39	1.0441808e-05
238	0xb72d6cad	-1.0336907e-05
239	0x383e5cd2	4.5385976e-05
240	0x369c75ca	4.6628747e-06
241	0xb68e7d12	-4.24649e-06
242	0x374aa6ca	1.2078972e-05
243	0xb7f0bd6f	-2.8698441e-05
244	0xb737b8a0	-1.0950636e-05
245	0x36836f6e	3.9170764e-06
246	0x37d04dba	2.4831726e-05
247	0x37386ada	1.0992133e-05
248	0xb4be1904	-3.540846e-07
249	0x37224b9d	9.6735575e-06
250	0x345e8210	2.0722678e-07
251	0x374166c8	1.1527627e-05
252	0x356e55f4	8.878699e-07
253	0x3712f654	8.759631e-06
254	0xb7ae84f4	-2.0804328e-05
255	0x375057c1	1.2418198e-05

conv2.lin.weight f4 [256, 128]
0	0x3d8bbf29	0.0682357
1	0x3d66bda5	0.056333203
2	0x3d4a27b2	0.049354263
3	0x3b932380	0.004490316
4	0xbc54410d	-0.012954962
5	0x3c66ac6c	0.0140791945
6	0x3dc2a056	0.09503238
7	0xbcb8cc4f	-0.02255836
8	0xbd5dc21e	-0.054140203
9	0x3da71a17	0.08159273
10	0x3de8de1f	0.11370491
11	0x3d578961	0.05262125
12	0xbda0520b	-0.078281485
13	0xbd80fa10	-0.06297696
14	0x3e04f078	0.12982357
15	0xbdb1da54	-0.08684221
16	0xbddbc9ca	-0.107318476
17	0xbc4ad2eb	-0.012379388
18	0xbda050c3	-0.07827904
19	0xbd5c3449	-0.0537608
20	0xbb144114	-0.0022621797
21	0x3d710a24	0.05884756
22	0xbdcdb138	-0.100435674
23	0xbd9abb87	-0.07555299
24	0xbdce0732	-0.10059966
25	0x3cd5a28c	0.026078485
26	0xbdd1a2c0	-0.1023612
27	0x3d4ed13a	0.050492503
28	0xbd3de728	-0.046363026
29	0x3cb047f1	0.02151868
30	0xbdc19cf7	-0.09453767
31	0xbdbce894	-0.09224048
32	0x3d920cd1	0.07131351
33	0xbda74264	-0.0816696
34	0x3d9a8714	0.07545295
35	0x3da955ad	0.082682945
36	0xbcbbcc56	-0.022924583
37	0x3d7d8451	0.061893765
38	0xbde2a892	-0.110673085
39	0x3cb1fdad	0.021727407
40	0x3d185363	0.0371889
41	0xbe0e42a2	-0.13892606
42	0xbd6d54b5	-0.05794211
43	0xbd687436	-0.056751452
44	0xbd8accdd	-0.06777356
45	0x3bb90f75	0.0056475946
46	0xbde8e606	-0.113719985
47	0x3b48388b	0.003055128
48	0x3dd878e7	0.10569935
49	0xbb820c41	-0.003968746
50	0x3cd93a44	0.026517041
51	0xbdab0084	-0.08349708
52	0xbcccf87f	-0.025020836
53	0xbdcc1539	-0.099649854
54	0xbbd2fffd	-0.0064392076
55	0xbd80aa00	-0.06282425
56	0x3d4e7201	0.05040169
57	0xbdeb8abe	-0.11501072
58	0x3df70fd9	0.120635696
59	0xbdbfdc83	-0.09368231
60	0xbd0404d5	-0.03223117
61	0xbca7308e	-0.020408895
62	0xbde887c9	-0.11354024
63	0xbd860d60	-0.0654552
64	0x3c1c558a	0.0095418785
65	0x3d0430d9	0.032273147
66	0x3d44ceb0	0.048048675
67	0x3d2767d6	0.04087051
68	0x3d3c432b	0.045962494
69	0xbdbed628	-0.09318191
70	0x3de41471	0.111367114
71	0xbd03694b	-0.032082837
72	0x3dae8614	0.08521667
73	0x3db4d381	0.08829404
74	0xbd9429bf	-0.07234525
75	0x3da6b09b	0.081391536
76	0xbdc7d0f7	-0.09756654
77	0x3d76e439	0.060276244
78	0x3d4a37a8	0.049369484
79	0xbdc63a29	-0.09679062
80	0x3df11135	0.1177086
81	0x3cd507a2	0.026004616
82	0xbd20b027	-0.039230492
83	0xbd8518ee	-0.064988956
84	0xbb937ab2	-0.0045007104
85	0x3dd8e589	0.10590655
86	0xbcae9f7c	-0.021316282
87	0x3b4f22dc	0.0031606471
88	0xbc90045d	-0.017580206
89	0x3d65eb0b	0.056132358
90	0xbd0a748f	-0.033802565
91	0xbd7f27ca	-0.062293805
92	0x3dae7464	0.085182935
93	0x3dab7e41	0.083736904
94	0x3c6604e8	0.014039256
95	0x3d217667	0.039419558
96	0xbc848dd9	-0.01618092
97	0xbdd652bf	-0.10465001
98	0x3d249438	0.040180415
99	0x3da1708e	0.07882796
100	0x3d119947	0.035546567
101	0xbda84034	-0.08215371
102	0x3da3cc06	0.07997899
103	0xbddf1dc7	-0.108943515
104	0xbc5968ef	-0.013269647
105	0x3d70033d	0.05859684
106	0x3b4c8360	0.0031206235
107	0x3c9ab529	0.018885212
108	0x3d9a9bb0	0.07549226
109	0xbd5b5c1a	-0.05355463
110	0x3da2a7f3	0.0794219
111	0x3df0a401	0.11750031
112	0x3d9f3622	0.07773997
113	0x3d8a0731	0.06739653
114	0xbcb4f66e	-0.022090163
115	0xbca8172b	-0.02051886
116	0xbd892e2f	-0.06698262
117	0xbcbfd458	-0.023416683
118	0x3c4e6f0c	0.012599718
119	0xbd0b7d16	-0.034054838
120	0xbcd55973	-0.02604363
121	0x3da71067	0.081574254
122	0xbca73c39	-0.020414459
123	0x3d0e904a	0.034805574
124	0xbdd16d52	-0.10225929
125	0x3d02f2d2	0.031969853
126	0x3c96f108	0.01842548
127	0xbdd9b371	-0.10629929
128	0xbde450bf	-0.111482136
129	0x3dac5f7a	0.08416648
130	0x3dc0b1f0	0.09408939
131	0x3caec047	0.02133192
132	0xbd2160d9	-0.039399
133	0x3d84f2b5	0.06491605
134	0xbd3a527f	-0.04548883
135	0x3d0a053b	0.033696394
136	0xbdcc5dd0	-0.09978831
137	0xbd0fffc9	-0.035156045
138	0xbcf4b0ef	-0.029869525
139	0x3ddbb848	0.10728508
140	0x3d547649	0.051870618
141	0xbda41698	-0.08012122
142	0xbd723aa0	-0.05913794
143	0x3def6045	0.11688284
144	0x3d0c8287	0.034304168
145	0x3c2eb3bf	0.010662972
146	0xbc5e3d90	-0.013564482
147	0xbcea38d9	-0.02859156
148	0xbc5b7d72	-0.013396608
149	0x3d861ed7	0.06548851
150	0x3dbc6eb7	0.09200805
151	0xbc0b4e52	-0.00850256
152	0x3ce2629f	0.027634917
153	0x3dc439f3	0.095813654
154	0xbdb36185	-0.08758835
155	0xbdf31001	-0.11868287
156	0xbbb3ac28	-0.005483169
157	0xbd684dd8	-0.056714863
158	0xbd4bfb77	-0.049800362
159	0x3db90c4b	0.09035548
160	0x3b290a74	0.0025793584
161	0x3c78c0a2	0.015182646
162	0x3ca0be19	0.019621896
163	0x3d4d8980	0.05017996
164	0x3dd8ee0d	0.105922796
165	0x3d96f031	0.073700316
166	0x3d876010	0.06610119
167	0x3dc59ec1	0.096494205
168	0x3cd93892	0.026516233
169	0xbdc8fb8f	-0.09813606
170	0x3cbecb81	0.023290398
171	0xbbad8aff	-0.0052961106
172	0x3d1b3c0a	0.037899055
173	0xbd4f69c7	-0.050637987
174	0xbdec405a	-0.115357116
175	0xbe09cd17	-0.13457142
176	0x3d98c489	0.07459361
177	0x3d4ec610	0.050481856
178	0x3cabd614	0.020976104
179	0xbc99909e	-0.018745717
180	0xbb382034	-0.0028095366
181	0xbd27e964	-0.040994063
182	0xbcb0f020	-0.021598876
183	0x3ccb2120	0.024796069
184	0xbd36c68e	-0.04462295
185	0x3d2d2335	0.042269904
186	0x3d9098ab	0.07060369
187	0x3e0599e2	0.13046983
188	0x3dd84eeb	0.105619274
189	0x3dec7f60	0.11547732
190	0x3dbbafef	0.09164416
191	0xbcf8d198	-0.03037338
192	0xbbe1b53a	-0.006888059
193	0xbcf39e22	-0.02973849
194	0x3dadcddd	0.08486531
195	0xbd3c98bf	-0.046044108
196	0x3dccce2a	0.1000026
197	0xbd963c3e	-0.07335709
198	0xbddc823b	-0.10767027
199	0x3d8272c0	0.06369543
200	0x3dbee88e	0.093217
201	0xbddfc7bc	-0.10926768
202	0xbd06e6d1	-0.032934967
203	0xbddc2318	-0.10748881
204	0x3c93d2ea	0.018044908
205	0xbc2e2ef5	-0.010631313
206	0xbd38c36d	-0.045108248
207	0x3dd44537	0.10364764
208	0x3d81af52	0.06332268
209	0x3bfb9d0c	0.0076786336
210	0xbdb2a3d9	-0.08722658
211	0x3c94483a	0.018100847
212	0xbd6913a4	-0.056903496
213	0xbdb0d0df	-0.08633589
214	0xbd27a261	-0.04092634
215	0xbd1ea106	-0.038727783
216	0xbdffc63a	-0.124889806
217	0xbe023a19	-0.12717475
218	0xbdcddca6	-0.10051851
219	0x3d769d5f	0.060208675
220	0x3d9b2337	0.07575076
221	0x3d051a80	0.032495975
222	0x3d69e834	0.05710621
223	0x3dd06ad7	0.10176628
224	0xbd56da67	-0.05245438
225	0x3dd0d9a2	0.1019776
226	0x3d9e3327	0.077246
227	0x3d3fb0bf	0.046799418
228	0xbd80d073	-0.062897585
229	0x3c8411bc	0.016121738
230	0xbe09c15a	-0.13452664
231	0x3db3b960	0.08775592
232	0xbda0de55	-0.078549065
233	0xbd23f1b2	-0.04002542
234	0xbdd5bb92	-0.10436167
235	0x3d11535e	0.035479896
236	0x3e0db9c6	0.13840398
237	0xbcf6cf25	-0.030128071
238	0x3ce93748	0.028468743
239	0xbdf3035f	-0.11865877
240	0xbe0c6cf7	-0.13713442
241	0xbdf0133f	-0.11722421
242	0x3daf3d7d	0.0855665
243	0x3d312ee7	0.04325762
244	0xbd6bf6ef	-0.05760854
245	0xbdaf9128	-0.08572608
246	0xbd108680	-0.03528452
247	0x3aee1c8c	0.0018166467
248	0xbca1f4e6	-0.019770097
249	0xbd045326	-0.03230586
250	0xbd67bdec	-0.056577608
251	0xbd521454	-0.051288918
252	0xbe091776	-0.13387856
253	0x3de7036a	0.11279948
254	0xbd2e5510	-0.04256159
255	0xba1cacf4	-0.00059767

bn2.weight f4 [256]
0	0x3f8065b8	1.0031042
1	0x3f7b61ed	0.981963
2	0x3f800c3d	1.0003735
3	0x3f807e48	1.0038538
4	0x3f820553	1.0157875
5	0x3f7d0322	0.98832905
6	0x3f7f7f10	0.99803257
7	0x3f81c7b8	1.0139074
8	0x3f7b2b2f	0.9811277
9	0x3f81af29	1.013158
10	0x3f7f4a0c	0.9972236
11	0x3f7c0134	0.98439336
12	0x3f824090	1.0175953
13	0x3f822b7b	1.0169519
14	0x3f7c095f	0.984518
15	0x3f8137aa	1.0095112
16	0x3f7c7ef4	0.98631215
17	0x3f7f264e	0.99667823
18	0x3f7f319e	0.99685085
19	0x3f80b2f7	1.0054616
20	0x3f812e49	1.009225
21	0x3f803f03	1.001923
22	0x3f7c65f4	0.9859307
23	0x3f8015da	1.0006669
24	0x3f803d4b	1.0018705
25	0x3f817d6f	1.0116404
26	0x3f7f9ea4	0.9985144
27	0x3f7c8cc8	0.98652315
28	0x3f7b4daa	0.9816538
29	0x3f7ff00e	0.9997567
30	0x3f7efff1	0.99609286
31	0x3f81e8aa	1.0149128
32	0x3f81d00c	1.0141616
33	0x3f80b2f2	1.005461
34	0x3f81a87a	1.012954
35	0x3f7ccd10	0.987504
36	0x3f81a846	1.0129478
37	0x3f7fd84c	0.9993942
38	0x3f80b585	1.0055395
39	0x3f7f844c	0.99811244
40	0x3f81e964	1.014935
41	0x3f7dc6db	0.99131554
42	0x3f811339	1.0083991
43	0x3f816ae6	1.0110748
44	0x3f807f02	1.003876
45	0x3f7d731a	0.99003756
46	0x3f7b503b	0.98169297
47	0x3f8023a3	1.0010875
48	0x3f810aa0	1.0081367
49	0x3f7ed3a8	0.9954171
50	0x3f8083e0	1.0040245
51	0x3f809280	1.0044708
52	0x3f7bff9e	0.98436916
53	0x3f7c1697	0.9847197
54	0x3f8031e8	1.001523
55	0x3f820d81	1.0160371
56	0x3f7d9ccd	0.99067384
57	0x3f816718	1.0109587
58	0x3f7f0b30	0.99626446
59	0x3f7c7011	0.986085
60	0x3f82705c	1.0190539
61	0x3f7eda69	0.9955202
62	0x3f7e9f7e	0.99462116
63	0x3f8236f3	1.0173019
64	0x3f80c152	1.0058997
65	0x3f8051de	1.0024984
66	0x3f7baa1e	0.98306453
67	0x3f7f76f0	0.9979086
68	0x3f80d010	1.0063496
69	0x3f7b6541	0.98201376
70	0x3f7cbccd	0.9872559
71	0x3f81ccab	1.0140585
72	0x3f7d4d2b	0.98945874
73	0x3f807342	1.0035174
74	0x3f7fae84	0.99875665
75	0x3f8281ee	1.0195901
76	0x3f7fd86a	0.99939597
77	0x3f801343	1.0005878
78	0x3f80fcd0	1.0077152
79	0x3f80e315	1.00693
80	0x3f7b73d0	0.9822359
81	0x3f805fec	1.0029273
82	0x3f7b88ed	0.9825581
83	0x3f7e9921	0.99452406
84	0x3f7c3b1c	0.98527694
85	0x3f81cd36	1.014075
86	0x3f7ff5a5	0.999842
87	0x3f808b6c	1.0042548
88	0x3f817a2e	1.0115411
89	0x3f7d5ab9	0.98966557
90	0x3f7b0b71	0.98064333
91	0x3f7e1278	0.9924693
92	0x3f810625	1.008
93	0x3f7bd4cb	0.9837157
94	0x3f7e77ff	0.9940185
95	0x3f8171c8	1.0112848
96	0x3f817ed0	1.0116825
97	0x3f81f99f	1.0154303
98	0x3f8108fb	1.0080866
99	0x3f7f9879	0.9984203
100	0x3f7cd036	0.98755205
101	0x3f824f87	1.018052
102	0x3f7c6271	0.9858771
103	0x3f809f53	1.0048622
104	0x3f7f04b4	0.9961655
105	0x3f823de4	1.0175138
106	0x3f80dc4e	1.0067232
107	0x3f8004a7	1.000142
108	0x3f82099f	1.0159186
109	0x3f7d2a33	0.98892516
110	0x3f8113c6	1.0084159
111	0x3f7feadb	0.99967736
112	0x3f7f202d	0.9965847
113	0x3f817b0a	1.0115674
114	0x3f82446f	1.0177134
115	0x3f7e02e8	0.99223185
116	0x3f80bede	1.0058248
117	0x3f827acc	1.0193725
118	0x3f7b6942	0.98207486
119	0x3f810fe7	1.0082978
120	0x3f8155b3	1.0104278
121	0x3f81ec75	1.0150286
122	0x3f80641e	1.0030553
123	0x3f805555	1.0026041
124	0x3f7b6f38	0.9821658
125	0x3f7cc8cb	0.98743886
126	0x3f7ef5e7	0.9959397
127	0x3f7fce9d	0.9992464
128	0x3f7fde92	0.9994899
129	0x3f7d9264	0.990515
130	0x3f7edb11	0.9955302
131	0x3f7cc76c	0.98741794
132	0x3f7b6310	0.9819803
133	0x3f7d33ca	0.9890715
134	0x3f7e090c	0.99232554
135	0x3f7feb94	0.9996884
136	0x3f828c9f	1.0199164
137	0x3f7e098d	0.99233323
138	0x3f7f58f4	0.99745107
139	0x3f7ff936	0.9998964
140	0x3f7b5546	0.9817699
141	0x3f815ab1	1.0105802
142	0x3f7bb18d	0.98317796
143	0x3f7b8e0c	0.9826362
144	0x3f7be9f1	0.9840384
145	0x3f7ee6f9	0.99571186
146	0x3f825e1d	1.0184971
147	0x3f82299a	1.0168946
148	0x3f7bb80e	0.9832772
149	0x3f80b615	1.0055567
150	0x3f7dc71d	0.9913195
151	0x3f823be8	1.0174532
152	0x3f801d0f	1.0008868
153	0x3f811abc	1.0086284
154	0x3f80d18e	1.0063951
155	0x3f7c260f	0.9849557
156	0x3f7fc020	0.99902534
157	0x3f81809d	1.0117375
158	0x3f7b25f1	0.9810477
159	0x3f7c282e	0.9849881
160	0x3f7c0329	0.9844232
161	0x3f7c3be4	0.98528886
162	0x3f80923e	1.004463
163	0x3f7cb0e9	0.98707443
164	0x3f7ff61a	0.99984896
165	0x3f80c771	1.0060865
166	0x3f7f7ed5	0.99802905
167	0x3f7f4e17	0.9972853
168	0x3f7ef8ab	0.9959819
169	0x3f7cd8dc	0.987684
170	0x3f823470	1.0172253
171	0x3f811f82	1.008774
172	0x3f7fe06b	0.9995181
173	0x3f7c7aa5	0.9862464
174	0x3f7be9a7	0.984034
175	0x3f805042	1.0024493
176	0x3f80ef0e	1.0072954
177	0x3f7bd744	0.98375344
178	0x3f824799	1.01781
179	0x3f7e0a07	0.9923405
180	0x3f823ec0	1.01754
181	0x3f816bcd	1.0111023
182	0x3f8242f9	1.0176688
183	0x3f81a06d	1.0127083
184	0x3f7c420a	0.9853827
185	0x3f816d89	1.0111552
186	0x3f8017dd	1.0007282
187	0x3f7ce8aa	0.9879252
188	0x3f81be44	1.013619
189	0x3f7e662f	0.9937467
190	0x3f800fd7	1.0004834
191	0x3f7c64cd	0.9859131
192	0x3f7c75db	0.98617333
193	0x3f80f67c	1.0075221
194	0x3f7d1938	0.98866606
195	0x3f7bf983	0.984276
196	0x3f8258be	1.0183332
197	0x3f803d3e	1.001869
198	0x3f80e9f9	1.0071403
199	0x3f7e239c	0.99273086
200	0x3f7fe080	0.99951935
201	0x3f81092a	1.0080922
202	0x3f7e7db3	0.9941055
203	0x3f7eb72e	0.9949826
204	0x3f7bfc5c	0.98431945
205	0x3f81e0db	1.0146745
206	0x3f7cd8dd	0.9876841
207	0x3f8059c2	1.0027392
208	0x3f7c8301	0.98637396
209	0x3f825a28	1.0183764
210	0x3f7c0914	0.9845135
211	0x3f827ea0	1.0194893
212	0x3f7ffc2b	0.9999415
213	0x3f80de1f	1.0067786
214	0x3f806db6	1.0033481
215	0x3f7dded5	0.9916814
216	0x3f8003d3	1.0001167
217	0x3f7de63b	0.9917943
218	0x3f820199	1.0156738
219	0x3f8056ae	1.0026453
220	0x3f8244fe	1.0177305
221	0x3f7e71d9	0.9939247
222	0x3f7f822f	0.9980802
223	0x3f7e2c18	0.9928603
224	0x3f823fa5	1.0175673
225	0x3f80f4e8	1.007474
226	0x3f7c4154	0.9853718
227	0x3f7c46fd	0.9854582
228	0x3f7d224e	0.9888047
229	0x3f7e3e2a	0.99313605
230	0x3f7d150f	0.9886026
231	0x3f82273d	1.0168225
232	0x3f81ea45	1.0149618
233	0x3f7c3268	0.98514414
234	0x3f7dc484	0.99127984
235	0x3f80953e	1.0045545
236	0x3f814a1e	1.0100744
237	0x3f80c57e	1.006027
238	0x3f81068e	1.0080125
239	0x3f7ebde9	0.9950853
240	0x3f81318b	1.0093244
241	0x3f7d5990	0.98964787
242	0x3f81405c	1.0097766
243	0x3f81df3f	1.0146254
244	0x3f82746a	1.0191777
245	0x3f81c501	1.0138246
246	0x3f7e17cf	0.9925508
247	0x3f7c32c7	0.9851498
248	0x3f81b440	1.0133133
249	0x3f8257a9	1.0183002
250	0x3f7fca2c	0.99917865
251	0x3f828cf6	1.0199268
252	0x3f7fb084	0.99878716
253	0x3f7d26dd	0.98887426
254	0x3f821af3	1.0164474
255	0x3f80058f	1.0001696
