gnn_model_calibrated.onnx (onnx, 98662 bytes, 2 tensors)

gnn_model.edge_classifier.6.bias f4 [64]
00000000: 7756 9c3d 487f dabd 2a24 2fbd 8eff 83b9
00000010: b6bb a4bd 86f5 aebd 0a6a a4bb 20da fdbc
00000020: 5c6f 0f3e f0b1 7c3d 90d2 ab3d e49e ccbd
00000030: 18d0 8e3a e12a 10bd c749 37bd 9e7c 3a3c
00000040: 902c fabc e2f8 06bc a95f 93bc 203a cc3d
00000050: f8a3 fbbd 7394 913d bb01 7fbc d26d 66bd
00000060: 5759 00bd 7405 bf3c fa36 dcbd c196 e8bd
00000070: a3c0 15bd 6fec 9bbd 92de cf3c 4fe9 0f3d
00000080: 251a 0c3e 34c8 9fbd 22ca af3d a775 7fbd
00000090: 8eed cdbd cd58 8bbc 0e1a 9cbc 349b 19bd
000000a0: 0fee 873c c970 d6bb 7cfb 93bd 06ce db3d
000000b0: 3fd5 e73d c3b7 113e e7eb f93d 89d3 9b3d
000000c0: 0af5 193d bc1c 723c eff0 af3d 076a acbd
000000d0: 4842 b1bd dfe2 ba3c 981c a2bd 37ff b43d
000000e0: db39 c8bd b40f 65bd 4f94 67bd 4cb1 95bd
000000f0: 846b bfbd 7138 84bc a1de dabd c2f2 6fbd
0.07633679 -0.10668808 -0.042759098 -0.0002517667 -0.080436155 -0.08542924 -0.0050175237 -0.0309878
0.14007324 0.061693132 0.08389771 -0.099912435 0.0010895757 -0.035197143 -0.044748094 0.01138225
-0.030538827 -0.008238049 -0.01798995 0.09972024 -0.12287134 0.071083926 -0.015564377 -0.056257077
-0.0313352 0.02331803 -0.107526734 -0.11356879 -0.036560666 -0.076134555 0.025374684 0.03513461
0.13681848 -0.078018576 0.08583476 -0.06236806 -0.100550756 -0.017010117 -0.019055393 -0.03750153
0.016593007 -0.0065442068 -0.07225701 0.10732655 0.1131997 0.14230256 0.12203198 0.076087065
0.037587203 0.014777359 0.08590876 -0.084186606 -0.0865522 0.022813259 -0.0791561 0.08837741
-0.0977666 -0.05592318 -0.056537922 -0.07309207 -0.09346679 -0.016140195 -0.10686994 -0.05858112

gnn_model.edge_classifier.8.weight f4 [1, 64]
00000000: 6ef0 a33d d885 233d 3fe9 c4bc b036 a73c
00000010: d673 2d3d d77a 443c 4856 1ebd 5392 e3bb
00000020: e409 ba3d 7805 3a3d 996e 34be da0c 45be
00000030: b7ac cabb 7ef9 01bd ff77 37be d70d 7c3d
00000040: 7854 4a3d ef7e 983d 9d8a 67be ab7a 18bd
00000050: 057f fabd 5014 6e3c fe05 52bd 22b4 bbbb
00000060: 4ebc 3cbd 148f 9b3d fbf5 8e3d 5891 27be
00000070: e084 5c3d 50db 3a3d 7dd0 51bd 38b8 833d
00000080: c14c ad3d 13c4 f93c c953 cf3d acbc e7bc
00000090: 9573 05b9 39c7 633d 4476 ba3c 0aad d83c
000000a0: 71f9 af3d 4e1a 3f3d 7d27 59bb ad31 533d
000000b0: 14de ef3d 528f 05bd 076c 123e 0a65 013e
000000c0: 8dd4 493d 5471 d73c a3b4 c83b 8b84 59bb
000000d0: 0e3a 93ba d18a d63d 0b67 04bc 7e52 203d
000000e0: 0d5e e73a f433 d13a f727 f3bc 42a3 c4bc
000000f0: a807 05bc 2d38 883d a27a 53bc 60fd 9d3d
0.08004843 0.039922565 -0.024037002 0.02041182 0.042346798 0.011992178 -0.038656503 -0.0069449334
0.09083918 0.04541537 -0.17620315 -0.19243184 -0.00618514 -0.031732075 -0.17916869 0.061536636
0.049396962 0.07446086 -0.2261147 -0.03722636 -0.12231258 0.01453121 -0.051275246 -0.0057282606
-0.04607802 0.07595649 0.06980511 -0.16364038 0.053837657 0.04561931 -0.05122422 0.06431621
0.08461905 0.030489003 0.101234026 -0.028288208 -0.00012726926 0.055609915 0.022761472 0.026449699
0.08592499 0.046655945 -0.003313511 0.051561046 0.1171228 -0.032607384 0.14299022 0.126362
0.04927497 0.026299156 0.006125049 -0.0033190574 -0.0011232512 0.10475696 -0.008081208 0.03914117
0.0017651931 0.0015960918 -0.029682143 -0.024003629 -0.008119501 0.0665134 -0.012907656 0.07714343
