gnn_model.onnx (onnx, 85181 bytes, 2 tensors)

gnn_model.edge_classifier.3.bias f4 [32]
-0.103352055 0.018607896 -0.008489224 0.010833575 -0.016862478 0.028356565 0.13862461 0.15227975
-0.041538004 -0.082025796 0.1711898 0.012717402 0.039949976 -0.037325047 -0.03783497 0.027842639
0.095493056 0.047388945 -0.10668742 0.0754963 -0.12153406 0.051344614 -0.1401293 0.093120106
0.06234383 0.06323152 0.01710452 0.077988066 -0.14807095 0.075704776 -0.065356374 0.017581318
00000000: 3eaa d3bd 966f 983c 6316 0bbc 4f7f 313c
00000010: 2e23 8abc 074c e83c 9cf3 0d3e 39ef 1b3e
00000020: c123 2abd 24fd a7bd 614c 2f3e a65c 503c
00000030: 96a2 233d 26e2 18bd d7f8 1abd 3f16 e43c
00000040: dd91 c33d e91a 423d ef7e dabd ce9d 9a3d
00000050: d9e6 f8bd bb4e 523d 0e7e 0fbe c1b5 be3d
00000060: 3e5c 7f3d 877f 813d c71e 8c3c 35b8 9f3d
00000070: e99f 17be 1b0b 9b3d 90d9 85bd b206 903c

gnn_model.edge_classifier.5.weight f4 [1, 32]
-0.04516885 0.08203797 0.13805328 -0.1794827 0.03827474 -0.0824017 -0.1584197 -0.1298373
-0.002860094 0.0014373249 -0.15839277 0.0838302 -0.20599954 -0.011527787 0.06885915 0.09368868
-0.15845422 -0.23507242 0.08457146 -0.22239919 -0.10476018 0.047800962 0.085120566 0.1252352
0.1264732 0.18899754 0.03692028 0.058234155 0.17519759 -0.22031944 -0.021542683 0.18000549
00000000: f902 39bd 8603 a83d d75d 0d3e 50ca 37be
00000010: f9c5 1c3d 39c2 a8bd c638 22be 12f4 04be
00000020: 6a70 3bbb 9f64 bc3a b731 22be 2baf ab3d
00000030: 8bf1 52be 0bdf 3cbc 0706 8d3d dadf bf3d
00000040: d341 22be d3b6 70be cd33 ad3d 9dbc 63be
00000050: 818c d6bd f1ca 433d b153 ae3d a83d 003e
00000060: 3182 013e 9288 413e b839 173d f086 6e3d
00000070: ff66 333e 6b9b 61be 487a b0bc 5c53 383e
